checkpoint/Wadi/model.pth (torch, 115525 bytes, 37 tensors)

rnn.weight_ih_l0 f4 [128, 1]
00000000: e1e0 51bd 2a28 ed3d fa11 a7bc 9ca2 32bd
00000010: 9e68 29be a025 f53d 7781 413d 1e7c 37bd
00000020: e387 963d f630 4f3e c9d9 803d 7f65 1bbe
00000030: be31 913d a179 9b3d 4768 b93d 5f82 45bd
00000040: b9f1 1b3d 2538 633d c00b 84bd 4d36 93bd
00000050: c92b 00be 3b1a 3a3e db0a 24be bdfe 013d
00000060: c09a ccbd 0f5f 6ebc 1df7 0dbd e49a e53d
00000070: ee86 403e e922 583d 46ec 613c eb3e a4bd
00000080: f226 5e3c 3db0 0a3d 46c4 ffbd 4975 49be
00000090: 3eca 1bbe 5f06 8bbd 3db3 b6ba 3da1 04bc
000000a0: b1f5 803d d5cf 2b3e 7dd6 d83d 5fa7 c13b
000000b0: 1993 66bd a58a 14be 2fdb 9b3d 0fc3 8dbd
000000c0: 04c4 9abd 4043 e53c 89a6 1ebe 61a4 153d
000000d0: cfb4 49bd 0461 d03d 580d 52bd 9013 1e3d
000000e0: cbe4 14be 9e0c 4ebd e860 1abd 03c0 eb3b
000000f0: 54ae 1d3e 5430 a73d 26fd 473e e3a8 453c
00000100: abf2 733d 5165 afbc 09c0 7a3d ec0f f13d
00000110: 4ad3 03be 2b0a 1dbe ebb9 5d3c e1ff 89bd
00000120: 4449 9c3b c82a 42bd bbf2 f9bc 7485 ed3c
00000130: b23b e73b a70a 74bc 5b12 053c 4e34 2dbd
00000140: 8c4b 2e3d 8a6a 59bc 0d1a 0cbd e90a dd3b
00000150: 920b 4b3d 196f ce3c ad24 d43d ba5f a4bc
00000160: 7bc0 1fbd 370b 7d3d 0783 023d 05a8 a3ba
00000170: 62dc a4bd 8314 333d b2ff c0bd 5b5a 883d
00000180: a8eb 56bd 5df1 223e bd59 09be cb92 a0bd
00000190: d311 d83d 4b96 da3d 7582 8f3d 4c16 143e
000001a0: 73e9 9ebd 7b1b e93d adc9 3d3e e91c 113e
000001b0: cee6 be3d 1433 1b3b a89a e43d 19b0 67bd
000001c0: 3185 3c3d 6cd2 063e acd3 d3bd 6f00 ddbc
000001d0: 6551 f2bd 3fd4 eb3d 0add a13d a92c e93d
000001e0: 85e2 1ebe b883 0bbd 163f 3fbd d591 01bd
000001f0: c8ff e63d d2ef ed3d c4c4 133d 77ba c4bd
-0.05123985 0.11579926 -0.020394314 -0.043612108 -0.16543815 0.11970067 0.047242608 -0.0447961
0.07350137 0.20233521 0.06291539 -0.15175436 0.07089566 0.07591558 0.090530924 -0.048220035
0.03807232 0.055473465 -0.06447554 -0.071880914 -0.12516703 0.18174069 -0.16019766 0.031737078
-0.09990454 -0.014549031 -0.034659494 0.11211184 0.18801472 0.052767668 0.013789242 -0.08019813
0.01355909 0.03385948 -0.12488608 -0.19673647 -0.15213868 -0.067883246 -0.0013938915 -0.008095083
0.06296862 0.167785 0.105877854 0.005909845 -0.056292627 -0.14506014 0.07610165 -0.0692197
-0.07556918 0.027986169 -0.15493216 0.036533717 -0.049244698 0.10174754 -0.051282257 0.038592875
-0.14540403 -0.050305 -0.037690073 0.0071945204 0.15398532 0.08163515 0.19530162 0.0120641915
0.059557598 -0.021410616 0.061218295 0.11770615 -0.12873569 -0.1533591 0.013533096 -0.06738258
0.004769476 -0.04740408 -0.03051125 0.0289943 0.007056677 -0.014895118 0.008122052 -0.04228621
0.042552516 -0.01327003 -0.03420453 0.0067456854 0.04957158 0.02519946 0.10358558 -0.020065177
-0.039001923 0.061778273 0.03186324 -0.0012485987 -0.08049847 0.043720733 -0.0942377 0.06657859
-0.052470833 0.15912385 -0.13413139 -0.078404985 0.10550275 0.10673197 0.070073046 0.1446163
-0.07759371 0.113821946 0.18533964 0.14171185 0.09321366 0.0023681568 0.11162311 -0.056564424
0.04602546 0.13166207 -0.103431076 -0.026977746 -0.11831931 0.11515092 0.07903488 0.113854714
-0.15516098 -0.034061164 -0.046691023 -0.031633217 0.11279255 0.11618008 0.036076322 -0.09605878

rnn.weight_hh_l0 f4 [128, 32]
00000000: 1124 643d b0ce 2e3c 49e8 0dbc a2f7 c5bc
00000010: a409 92bd fa8b 853d 9564 21bd 3539 3bbc
00000020: a9ba 803d 01dd 37bc 062c 923d c4b9 c9bd
00000030: 4655 d13b 591b fd3c 86e6 17bd 5a36 98bd
00000040: fd6f 82bd 0519 553c 85ed ebbb c7c6 9d3d
00000050: b087 49bd 121e 37bd 57a5 bb3a 736f 103d
00000060: 5ab7 0dbd ac04 7dbc 1c97 c53d ca77 5c3c
00000070: 1f7d 0e3d 2c92 843d bc95 4c3d fe35 ee3c
00000080: 5e5a f43a 66dc 4bbc f7f1 23bc 5352 613d
00000090: 8d11 95bd ea76 04bd 7f7b 4d3d 8da6 d03b
000000a0: b477 aebd f0b2 513d e1ea 443d c1b2 423d
000000b0: 3eeb 3f3d c5b3 b03d 1d83 b33d fc85 573d
000000c0: 5a9b 293d ddaa 7dbd 2b67 a63d 558f bcbc
000000d0: 8622 303d 9032 b83d 040e 593d ddfa 023d
000000e0: 2953 65bc 1160 823d 578a 823d 9ca6 f43c
000000f0: ca8e 82bd 8766 9bbd c4e5 e53d fbe1 b4bc
00000100: c212 48bc df7d 0c3d 9187 07bc 742a d83d
00000110: e1a3 debd 91da a7bb 8c99 67bd fb34 c9bd
00000120: 3be5 5c3d c218 c33b de6d 7f3d 3046 f9bc
00000130: 7b59 453c 5bd6 f43d 419c 27bc c65f e63c
00000140: 14b8 1c3d ebb7 2c3d 92fe b9bd 3625 5bbd
00000150: fbfb b53d 71e0 e73c c5bd c83d 0031 60bd
00000160: 770b 3dbd 0fad 663c af65 6fbd 2f4d 363d
00000170: ea27 fa3c 0913 d4bd dc0b 353d 0926 c53c
00000180: 48fa 213c 2685 ce3d c55c f1ba 2288 d03a
00000190: cdb8 a3bb 2f28 dfbc 33a9 f4bd e76b 6e3d
000001a0: 4a5c 023d 3a14 963d fc8c 6dbd 5717 90bd
000001b0: bed7 f7bc 7ab8 303d 1842 3b3d 90a0 b73d
000001c0: 4b56 85bd 54c5 273d 965d 25bd 6e83 7ebc
000001d0: 7e9e 2abd 2087 9dbd 1891 9bba 98b0 ddbc
000001e0: 9f32 e13c 9b10 68bd 92c9 2bbb ae68 063d
000001f0: 6706 063d a60f 8d37 3a06 b7bd 6e54 a43b
00000200: 558b 883a 1246 da3d 5e8f 63bd 13fc 26bd
00000210: 2438 83bd b2cb 41bc 5223 9939 2be6 1f3d
00000220: 7bca dfbd 3364 e73d ffe6 993d 9337 33bd
00000230: bddb 873d 5c7b b43c cda4 8f3d 6c65 663c
00000240: b466 8dbd 47fa d93c 884b a73a 9e9b 97bd
00000250: f71b b53d cdd8 0fbd c4c2 5a3c d5b7 f73d
00000260: 9cd7 b0bb 75a7 c9bb a4a6 8cbd 4d7f 323d
00000270: 2380 963d 4ef0 303b 8626 083e dab6 8d3d
00000280: 25b5 fa3d cea8 d5bd 5087 d3bc 9621 a7bd
00000290: 72d8 09be 92f8 a1bd b175 54b8 a219 b03c
000002a0: 7983 183e 9c0d 4abb e51f 843d 7b0f 13bc
000002b0: b41a b5bc ebbf ed3d 4fae 443d f7d0 7c3d
000002c0: 6550 05bd 551e 81bc ba29 be3c ea81 a63c
000002d0: 8e1f 993c 986b 4d3d 045f 83bd a842 3cbc
000002e0: 4d1c 3b3c bc9d b1bc 01de 2e3d 0031 4a3a
000002f0: 9f31 8b3d 5925 643d b8e1 02be b2ac 9e3c
00000300: 5e8a dc3c 051b 87bd 508d e63b 6a4a 7cbd
00000310: 5b7b 7cbd d543 d83c 4238 abbc c75b bf3d
00000320: 66db c53c 8c9d 803c add6 3b3d 8172 f03c
00000330: 0f6a 81bc a4da 503d b103 b23b ed31 d53d
00000340: 723b cbbc 3152 423c f3c8 f73c 6f73 c8bd
00000350: cb20 8b3c 1845 26bb 54bb d73c c846 56bd
00000360: 04d2 74bb fbf1 693d 90ae 4c3d 96e6 9bbd
00000370: e3c0 863c d9b5 b63c 7dc4 bd3c 4f2e 6cbc
00000380: e97c 9cbd a0a2 49bd 46d4 f23d 605e 2c3d
00000390: 8a24 92bd c8a6 b23c 7d13 a2bc d207 833c
000003a0: 0809 463d 02ed 543d 4c61 723b 7499 cb3d
000003b0: e8ba a53b 809c 203d 9e83 703b 190a 503b
000003c0: 429b aebd 0cb3 8dbc 88f8 713d d2c5 b13c
000003d0: a698 e03d 00ce 4cbb 7b17 e53d ecba 093d
000003e0: fa39 65bd cfd2 083e 94a5 113e dbbc cb3d
000003f0: 44bc 5b3d 34fa 8f3d cd74 ac3d 4df9 5f3d
0.055698458 0.010669395 -0.008661338 -0.024165932 -0.07130745 0.06520839 -0.039402563 -0.011427213
0.062856026 -0.011222125 0.07137303 -0.09849885 0.006388339 0.03089683 -0.03708508 -0.07432242
-0.06369016 0.013006453 -0.0071999454 0.077039294 -0.049201667 -0.04470641 0.0014316243 0.035262536
-0.034598686 -0.015443008 0.096479625 0.013456294 0.034787294 0.064731926 0.049947485 0.02907848
0.0018642654 -0.012442684 -0.010006419 0.05501015 -0.07278738 -0.032339968 0.050166603 0.0063675107
-0.08518925 0.05119604 0.04807556 0.047533754 0.046855204 0.08628038 0.08765242 0.05261801
0.04140792 -0.061930526 0.081251465 -0.023017565 0.043001674 0.08994019 0.052991882 0.031977523
-0.013996878 0.063659795 0.063740425 0.029864602 -0.06374891 -0.07587915 0.11225465 -0.022080412
-0.012211503 0.034299728 -0.008272068 0.10554972 -0.10871101 -0.0051224907 -0.056542918 -0.09824558
0.05392955 0.005953879 0.062360637 -0.030428976 0.01204526 0.119549476 -0.010230125 0.02812184
0.038261488 0.042167585 -0.090817586 -0.053502284 0.08885952 0.028305264 0.09801821 -0.05473423
-0.04615351 0.014079346 -0.058446582 0.0445072 0.03053661 -0.10355193 0.044200763 0.024065988
0.009886332 0.1008399 -0.0018414488 0.0015909711 -0.004996395 -0.02724084 -0.11946335 0.058208372
0.031826295 0.07328077 -0.05799578 -0.07035702 -0.030254241 0.04314468 0.04571733 0.08966172
-0.065106 0.04095967 -0.040372454 -0.015534265 -0.041655056 -0.07691789 -0.0011868803 -0.027061746
0.027489958 -0.05665646 -0.0026212675 0.032814674 0.03272095 1.6815797e-05 -0.089367345 0.0050149476
0.0010417501 0.10657896 -0.055556647 -0.04076774 -0.06407192 -0.01182835 0.0002920875 0.039037865
-0.10927292 0.11298408 0.07514762 -0.04375417 0.066337086 0.022031479 0.07013855 0.014062267
-0.06904355 0.0266086 0.0012763599 -0.074027285 0.088432245 -0.035118867 0.0133521 0.1209561
-0.0053967964 -0.0061539956 -0.06867722 0.043578435 0.07348659 0.0026998702 0.13295946 0.06919642
0.12241582 -0.104325876 -0.025821358 -0.08160703 -0.13461474 -0.07908739 -5.0654347e-05 0.021496598
0.14893903 -0.0030830866 0.06451396 -0.008975859 -0.02210746 0.11608871 0.048017796 0.061722722
-0.032547373 -0.015761534 0.023213256 0.02032562 0.018691804 0.050151438 -0.06414607 -0.011490501
0.011420322 -0.021681659 0.04269219 0.000771299 0.06796574 0.05569968 -0.12781417 0.019369457
0.026921447 -0.065969504 0.0070358887 -0.061594404 -0.06164108 0.026399532 -0.02090085 0.09343677
0.024152469 0.015700124 0.045859028 0.029351475 -0.015797643 0.050989762 0.005432569 0.10409913
-0.02480862 0.011860416 0.030247187 -0.09787642 0.01698341 -0.0025370773 0.026334442 -0.052313596
-0.0037356624 0.057115536 0.049971163 -0.0761234 0.016449397 0.022303509 0.023164982 -0.014415338
-0.07641012 -0.049227357 0.11856894 0.04208219 -0.071358755 0.021808043 -0.019784683 0.01599494
0.048348457 0.05198384 0.0036984263 0.09941378 0.0050576814 0.03921175 0.0036699544 0.00317443
-0.08525707 -0.01729729 0.05907491 0.021700773 0.109666154 -0.0031250715 0.11186119 0.03362553
-0.055963494 0.13361667 0.1422332 0.09948131 0.05364634 0.07030144 0.084207155 0.05468111

rnn.bias_ih_l0 f4 [128]
00000000: c99e a4bd 8b63 03be dc16 353c f3e6 873d
00000010: 2cf2 fcbc a7bd ca3b 51e4 84bd 183c 073e
00000020: 5dcc 08be eea3 16be bdef dbbb 071d 3cbe
00000030: 806e b6bd f719 b13d 0207 c2bd 8daa 7a3d
00000040: 58b2 ea3d a2e9 23be 8630 fc3d 6558 9e3c
00000050: 1a41 dc3d b212 24be e7b2 113e 87ee ba3d
00000060: 6ab8 13be 9958 fa3c 3f67 77bd d40c 523d
00000070: b501 c7bd 1a10 4bbd b8f4 263a a669 31be
00000080: 4b6a a2bd 7d1a 98bd 60a1 0abd b88a a63d
00000090: 522d f9bd b24a 64bd 34ca 27be 2073 0cbe
000000a0: e112 19be af15 4ebe e13c debd 37f4 49be
000000b0: 1e46 64be 53c1 9ebd 1678 85be 86ef b3bc
000000c0: ebb4 a7bd 0c43 01be 2f30 3cbe 1d4b 133d
000000d0: 9455 613d 2f11 22bc 6e91 e43d 7199 42bd
000000e0: 9dc6 d2bd 2183 0c3e 0875 ab3d fe3c 183e
000000f0: 4713 6bbe c3b2 10be b038 563d a914 5cbd
00000100: 577a 833d b7e3 02bd 3ead 413c 7366 873d
00000110: 8052 b43d 14f4 f6bd 1c86 413d 85ea d43c
00000120: 8960 b3bd 7ec1 3ebc d7e8 c1bd 7dbe 713d
00000130: 429e e03d 033e bfbd 343a a83d a03e 123a
00000140: 1e29 c4bd 70f8 3fbd 3156 f8bd 2b1c 5cbc
00000150: e18f 56bd 3138 993d f80a 05bd a96e d33d
00000160: 0a0b 12bc 813f 96bd b1f6 863d 214c d5bc
00000170: a98e 103e a43b 983c 12b2 58bd 005b a8bd
00000180: 367f 8c3d 403b b3bc 8427 053e 3436 11be
00000190: 7140 37bd 5aaa 93bb 6530 76be 5b98 9b3d
000001a0: f7ef 153d 8c28 28be 16bd c4bc 645f 013e
000001b0: 7e1f 013d c10a bd3d 9e4a 08be 600e f83d
000001c0: e8df 90bd 07cd a0bc e9b7 30bd 1c1a 9dbc
000001d0: 42b8 96bc bbb8 49be 015a a8bd f950 4cbd
000001e0: 7b03 01be f3cd 0cbd acb2 d13b 958d 933d
000001f0: e82a b3be c893 043e c7f6 95bd 0b98 e5bc
-0.08038098 -0.12830941 0.011052813 0.06635847 -0.030877195 0.006187159 -0.064888604 0.13206518
-0.13359208 -0.14710972 -0.0067119286 -0.18370448 -0.08907795 0.086475305 -0.09473993 0.061197806
0.114597976 -0.16007093 0.123139426 0.01932926 0.10754605 -0.16022757 0.14228402 0.09127527
-0.14425817 0.030559825 -0.060401198 0.051281765 -0.097171225 -0.049575903 0.00063688634 -0.17325458
-0.0793043 -0.07426927 -0.033845305 0.08131927 -0.12166847 -0.055735298 -0.16385728 -0.13715792
-0.14948608 -0.20125459 -0.108514555 -0.19722067 -0.22292373 -0.077517174 -0.2606818 -0.0219648
-0.08188804 -0.12623233 -0.18377756 0.035960305 0.055013254 -0.009891792 0.11160551 -0.047509614
-0.10291789 0.13721897 0.08371931 0.14867017 -0.22956572 -0.14130692 0.052300155 -0.05373064
0.06419819 -0.031955447 0.011821089 0.066113375 0.08804798 -0.12058273 0.047247037 0.025990734
-0.08758647 -0.011642812 -0.09468239 0.059019554 0.10967685 -0.09338 0.08214226 0.000557879
-0.09578155 -0.046867788 -0.12125815 -0.01343445 -0.052383307 0.07481421 -0.032481164 0.10323841
-0.008913765 -0.07336331 0.065900214 -0.026037278 0.1411692 0.018583126 -0.052904196 -0.08220482
0.06860201 -0.021878839 0.13003355 -0.14180833 -0.04473919 -0.0045063915 -0.24041899 0.07597419
0.0366058 -0.16421717 -0.024015944 0.12634045 0.031524174 0.09230567 -0.13309714 0.12112117
-0.07073957 -0.019629015 -0.04314414 -0.019177489 -0.018398408 -0.19699375 -0.08220292 -0.04988191
-0.12598984 -0.034376096 0.006399473 0.07204739 -0.34993672 0.12946999 -0.0732246 -0.028026601

rnn.bias_hh_l0 f4 [128]
00000000: c6fc 05be 1491 e03d 4c22 833c 7a14 fabd
00000010: 84b3 643e 671c 313c 8613 fcbd dde7 51bd
00000020: d344 2cbe 55f3 dcbd 09aa c7bc d853 c03d
00000030: 7acc 67be 09f9 9a3d 91de 1abe 164b 7fbd
00000040: 5c20 bbbd 8b83 c4bc 3bee 5fbc 5aea 5dbd
00000050: 2832 e3bb 413f 983c 8500 dabc 783b 8ebd
00000060: 4544 c4bd 4723 aa3d f1cd 43bd f1b8 84bd
00000070: 1519 90be 3794 afbd 389e edbd 8e19 24be
00000080: 0fac 51bc 2060 503d 2245 933d 88f2 17be
00000090: 3538 193e 649b f9bc dd83 88be 23b6 d6bd
000000a0: f956 cebc 9599 873c deec 0cbe 0c08 cf3d
000000b0: a1ae 89be a6b2 b3bd 61b4 33be 1eb0 74bd
000000c0: 6e69 ddbd d22e 03bd c705 6f3d 676c 5dbe
000000d0: 55d9 0b3e e969 65be d538 473d ba00 8bbd
000000e0: 794d f2bd b4cb 8b3d eb1c 5ebd 149a 25bd
000000f0: 4217 5abe 7bfb 33bd fb07 c639 95d0 18be
00000100: 0d87 b3bd a2a3 0b3d c62c e5bc d8f8 90bd
00000110: 8ae0 33bd a47b 55bd 0599 073c 24aa 85bd
00000120: d8a3 ce3c 4b50 113d 71ed 173d bac1 9ebc
00000130: 8212 b2bd 6c37 233d 22e3 1fbd acfd 65bd
00000140: a626 b53d 11a2 073d de70 973d d7f8 cd3d
00000150: 1758 063d 3c3f 06be 322f 07bd 9701 b63d
00000160: c274 233a 00d8 74bd 8ac0 07be d337 313d
00000170: 8504 16be a0c3 f1bd f944 d03d dd77 11ba
00000180: 33ac f0bd 8b88 4bbe cbf4 9dbd 96a6 2b3c
00000190: b07e ac3d 7e3c 82bd 09a3 eebd df9f cd3c
000001a0: a690 8ebd d222 243c 19c1 8f3b c374 83bc
000001b0: 79c2 30be 4901 19be c771 acbd 7305 333e
000001c0: 9944 463d e188 3dbe 3af5 ba3d 562e 093e
000001d0: 3900 a33d 8a78 0abe f5a1 c03d 3dbf 66be
000001e0: 2f61 06bb 07b0 fd3d 83bf 223d bbf5 87bd
000001f0: f496 63be debd 8dbd 13d4 8a3d 0ee7 fabd
-0.13084707 0.109651715 0.016007565 -0.12210937 0.22334105 0.010809994 -0.12308411 -0.051246513
-0.1682313 -0.107885994 -0.024373071 0.09390992 -0.22636595 0.07567031 -0.15123965 -0.062327467
-0.091370314 -0.023988506 -0.013667638 -0.054178573 -0.0069334693 0.01858485 -0.026611576 -0.069449365
-0.09583334 0.0830751 -0.047803823 -0.06480587 -0.28144136 -0.085731916 -0.116024435 -0.16025373
-0.01279737 0.050872922 0.071909204 -0.14838612 0.14962848 -0.030469604 -0.26663104 -0.104839586
-0.025187956 0.016552726 -0.13762233 0.10108957 -0.26891044 -0.08774309 -0.17549278 -0.05973827
-0.10811125 -0.032027073 0.05835512 -0.21623383 0.13657124 -0.22403683 0.048638184 -0.06787248
-0.11831183 0.06825963 -0.054226797 -0.040430143 -0.21297935 -0.043941002 0.0003777145 -0.14923318
-0.08765993 0.0340916 -0.027975451 -0.07078713 -0.04391531 -0.052119866 0.008276229 -0.065265924
0.025224611 0.035476964 0.037091676 -0.019379485 -0.08694936 0.039847776 -0.03903497 -0.056150123
0.08845262 0.033113543 0.073945746 0.10057228 0.032798853 -0.1311006 -0.033003993 0.08887022
0.0006235355 -0.059776306 -0.13257042 0.04326613 -0.14650162 -0.11804891 0.101694055 -0.0005549172
-0.117515944 -0.19876306 -0.07712706 0.010476729 0.08422601 -0.06359194 -0.1165219 0.025100647
-0.06961183 0.010018067 0.0043870327 -0.016046887 -0.17261685 -0.14941896 -0.08420139 0.17482547
0.048405264 -0.18509246 0.091288045 0.13396582 0.07959027 -0.13522545 0.09405891 -0.22533889
-0.0020504703 0.1238709 0.03973342 -0.06638666 -0.22225553 -0.0692098 0.06778731 -0.122511014

gcn.lin_n.weight f4 [32, 32]
00000000: 034e 943d 0520 b4bd b323 0bbd 7dd9 8c3c
00000010: 32de 80bd 7330 8fbd 9269 a6bc ee7e 27ba
00000020: 90fb 0c3d b8b1 eabc e1ef a1bd ff81 b5bc
00000030: 94fd 6a3d 2ba1 29bc 6983 d73b e32f a2bd
00000040: eb6a d0bc dd44 583d 768b dfbd 66b9 a23d
00000050: 2d8f dd3c 956e 85bd adbe 23bc 911e 693d
00000060: f6c4 c13c 89da 5e3d 96d8 823b aa4a fc3d
00000070: b063 063d 3fff 30bd bb21 c5bd 2640 b43d
00000080: e750 cbbd fe45 f0bc 0071 42bd b87c 493d
00000090: 60d9 84bc d2a0 163d 3d39 febc 812b 3ebc
000000a0: 0515 093c 1089 b63a d3d9 87bd cd07 813d
000000b0: bf43 91bc 9e8e d33c 4929 76bc 6352 31bc
000000c0: 3080 6bbd a3f5 2c3d 8052 04bd f6b7 c7bc
000000d0: f017 04bd 56f0 89bd abb4 433d 3180 483c
000000e0: b529 ab3d 91b9 c3bc 6971 82bd 9898 16bd
000000f0: bdd5 f03d 8863 cdbc 524c 5e3d 2c7b 4cbd
00000100: b001 26bc 8e46 b6b6 0689 25b9 b4c4 9837
00000110: 9ccb b4ba 80ec cd38 cc1a fb38 b8b9 2837
00000120: 707b 3f3b 8234 69ac 5753 d435 0688 8b3b
00000130: cf0f 0b38 0cf1 42ba cc08 1023 c313 a7b8
00000140: a1af 9db9 5c55 1bb6 543f e03b c29d 56bc
00000150: 0394 083c e3e2 beb3 2c5b d13a 5c04 1639
00000160: 5bb0 9f3b 6b64 5cbb 1dca a8bb 8770 a0b8
00000170: 4f6f 5aad c4f8 9b3a 0c42 15bc 5729 fb38
00000180: ec6c 85bc cfb4 24bd 6181 eb3c a33a 06bd
00000190: 987b 1ebd 3b00 5b3d e2a1 2b3c 5cb6 423d
000001a0: 317e 1d3c f0bc 25ba 06cc 443d 96c4 983c
000001b0: 3e56 f9bc 01b7 e93c 6565 063d 9802 663d
000001c0: 641e 3fbd b10d dc39 e13c 643d 3c2b 833c
000001d0: 9e12 c23b 0ebc 073d 1181 1f3d 2cea 30bd
000001e0: e06a 683b 8f89 223d 232b f93c e918 1a3d
000001f0: 5ee8 aa3b bc1b 323d 102b 90bc 0323 d03c
00000200: 028e 183e 2d4c a83d 183b 67bd 8c95 c83d
00000210: 3ede 8ebd 4e36 3a3d 949f 08bd b34d ee3d
00000220: 5094 14be 196c d73c 62cb 233e 422b c4bd
00000230: e83a ee3d f740 9e3d ccd9 ae3c 7215 e93d
00000240: aeb2 153d a291 d5bd 2b29 67bd 803d dfbd
00000250: 8a8a b5bd 4c22 0b3e 6700 213c 4a55 d8bd
00000260: 502b e8bd ab88 8c3b 0041 ad3d f663 a53d
00000270: b283 ba3d 8e70 02bd aca2 333d 8254 81bd
00000280: dd03 8cbd 0113 c43d cf63 9cbd 8c8e 523d
00000290: 59fa e33d 889e 8ebd 92e8 363b 1b2f 6dbd
000002a0: da93 b5bd cfc7 9abd 4508 c0bd 0fce 49bd
000002b0: 8921 163d 7bbf dbbd c5c0 0ebd 0934 d6bd
000002c0: 7dca ba3d 6795 d0bb bdf4 d2bd a11b b53d
000002d0: 7cd2 f1bd a32a bcbc d4f2 fabd 3fb1 903d
000002e0: 1b87 ae3d cb29 5bbd 68a7 e4bd 74ae 8f3c
000002f0: 6bc8 f3bc a973 ccbd 39da 973d 4988 91bc
00000300: 8717 89bd 35b1 d5bc 59aa 9cbd 603b b4bd
00000310: 3bd1 183d 79de 403d 1e5e e6b7 e415 143d
00000320: a308 ab3c 8118 bcba 4e76 1c3d ec1a 673c
00000330: 7b08 9bbc bc7f 28bd 4592 843c 43be c13d
00000340: a1fa a9bd fda1 223a ad9f 013e c2a2 2a3d
00000350: b1d6 cebd 1777 3d3c ba0b 75bc 9801 b8bc
00000360: 0ddb fd3d 88c3 62bc ce24 60bd 3ec0 8a3b
00000370: 7558 2bbc 9def a93c fdda 6b38 9506 babd
00000380: 7057 46bd 7a94 173d d6dc afbb c670 613e
00000390: 38ce 0d3c 6435 ac3c 2e9b ff3d 2e89 36be
000003a0: 644e 4b3d 4b5f 37be 2d2b a6bd 2495 ee3d
000003b0: 6eef d2bc a6b5 02bd b81d e2bc ed9f bc3a
000003c0: 354c a4bd 46eb d93d 1019 2e3d a37f 853d
000003d0: 254b 96be 82f3 343e ff4b 5abe 58cb 90bd
000003e0: 3ead e83c b650 b7ba b7d6 5dbe 1e11 35bd
000003f0: 0b7a 06be 916a 28be 9459 8a3d 705e 4d3d
0.07241442 -0.0879517 -0.033969592 0.01719355 -0.062923804 -0.06991663 -0.020314012 -0.00063894584
0.034419596 -0.028649196 -0.079070814 -0.022156714 0.057370737 -0.010353367 0.0065769446 -0.0791929
-0.025441607 0.05280005 -0.10915272 0.07945518 0.02704581 -0.065152325 -0.009994191 0.056913916
0.023653489 0.05440763 0.003993104 0.123189285 0.032809913 -0.04321217 -0.09625574 0.08801298
-0.0992754 -0.02933025 -0.047471046 0.049191207 -0.016216934 0.036774464 -0.031033153 -0.011607052
0.008366828 0.0013926346 -0.066333435 0.06300316 -0.0177325 0.025824841 -0.015024492 -0.010822865
-0.057495296 0.042226445 -0.03230524 -0.024379712 -0.03224939 -0.067352936 0.04777972 0.012237594
0.08357564 -0.023892196 -0.063692875 -0.03676662 0.11759517 -0.025071874 0.054272003 -0.049922153
-0.010132238 -5.4322363e-06 -0.00015786671 1.8211409e-05 -0.001379359 9.819213e-05 0.00011973604 1.0056821e-05
0.0029217862 -3.314044e-12 1.5819486e-06 0.0042581586 3.3154905e-05 -0.00074364315 7.8081185e-18 -7.9668614e-05
-0.00030076227 -2.3146486e-06 0.006843487 -0.013099136 0.00833607 -8.888835e-08 0.0015972606 0.00014306739
0.004873318 -0.003362919 -0.005151047 -7.6503544e-05 -1.2416581e-11 0.00118997 -0.009109985 0.00011976313
-0.01628729 -0.040211495 0.028748216 -0.032770764 -0.038692087 0.053467017 0.010475608 0.047537193
0.009612606 -0.00063224044 0.048046134 0.018648427 -0.030436631 0.028529646 0.03281154 0.056154817
-0.046659842 0.0004197187 0.05572212 0.016011827 0.0059226295 0.033138327 0.038941447 -0.043192074
0.0035464093 0.039681967 0.030416077 0.037621412 0.0052156886 0.04348348 -0.017598659 0.02540732
0.14897922 0.082176544 -0.05645284 0.09794149 -0.06975983 0.045461945 -0.03335531 0.11635914
-0.14509702 0.026296662 0.15995553 -0.09578563 0.11632329 0.07727235 0.021344088 0.113810435
0.036547355 -0.10428168 -0.056435745 -0.10900402 -0.08864315 0.13587302 0.009826756 -0.105631426
-0.11336386 0.004288753 0.084596634 0.08075707 0.0910715 -0.03184562 0.043856308 -0.06314947
-0.06836674 0.09573937 -0.076362245 0.051405475 0.111317344 -0.06963831 0.0027909619 -0.05790625
-0.08866091 -0.07557642 -0.09376577 -0.04926878 0.036653075 -0.107298814 -0.034851808 -0.10459144
0.09120653 -0.0063654664 -0.103005864 0.088431604 -0.11807725 -0.02296955 -0.12253347 0.07065057
0.08521863 -0.053506654 -0.11164743 0.01753924 -0.029758653 -0.09982998 0.074146695 -0.017765181
-0.066939406 -0.026085475 -0.07649679 -0.088003874 0.037308913 0.047087166 -2.7461963e-05 0.03615369
0.020878142 -0.0014350564 0.03819876 0.01410554 -0.018924942 -0.041137442 0.016183028 0.09460118
-0.08299757 0.00062039477 0.12658568 0.041659124 -0.10099543 0.011564038 -0.014956409 -0.022461697
0.12395296 -0.013840564 -0.0547226 0.004234343 -0.0104581015 0.02074414 5.6232315e-05 -0.09083287
-0.04842323 0.037006833 -0.005366902 0.22015676 0.008655123 0.021021552 0.1248077 -0.17825767
0.049635306 -0.17907445 -0.08113704 0.1164954 -0.025748935 -0.031911515 -0.027602062 0.0014390923
-0.08022348 0.10640578 0.04250437 0.065184854 -0.29354206 0.17671016 -0.21318053 -0.07070035
0.02840292 -0.0013985846 -0.21663938 -0.044205777 -0.13132493 -0.16446902 0.06755367 0.05013889

gcn.lin_n.bias f4 [32]
00000000: f915 fcbd 089d 8abc c718 59bd d269 6cbd
00000010: 3ee6 acbc 6367 cdba 91f2 5dbd d700 343e
00000020: 8432 ebbc 79ce 533e bedf d8bc 0f7b 883d
00000030: add1 a8bd f1d0 083e 07f3 8bbd 88aa a5bb
00000040: 07be 5b3d db02 603d 9fce 15bd e117 ddbc
00000050: 437a a9bd 59b6 14be 916f 6cbd 33c9 453e
00000060: dd72 0dbe 452f 3e3e 2daf 5cbd d78f fb3d
00000070: 32ef 053e 3e71 57be 65bf a3bd 2bcb 363e
-0.123088785 -0.016920581 -0.053002145 -0.057718106 -0.021105882 -0.001567107 -0.054186407 0.17578445
-0.028710611 0.20684232 -0.026473876 0.066640966 -0.082431175 0.13360955 -0.06833463 -0.0050557293
0.05364802 0.054690223 -0.036574002 -0.026988925 -0.08275273 -0.14522685 -0.057723586 0.19315033
-0.13813348 0.1857272 -0.053878 0.12283295 0.13079527 -0.21039292 -0.0799549 0.1785094

gcn.lin_r.weight f4 [32, 32]
00000000: e8d8 c83c e66d 103d 34f8 51be 78bb 25be
00000010: ea53 173e ab1c b03d 88e5 23be 398b e03c
00000020: 65ab 083b 53d0 87bc f0b1 913d e5f1 4b3d
00000030: f58d 5c3c 6552 3ebe c864 0d3d fff7 563d
00000040: a5e4 fc3d 64dd 243d cfcc 853d ef1b 013e
00000050: c7a6 f2bd c38b 893d f1be 9c3d 3b6e 8dbc
00000060: fccc e33d 3064 16be 60ba 4ebe a14c bbbd
00000070: 9be8 9e3c c793 fabc 70f1 a2bc 54eb 333d
00000080: 9141 66bd fea4 69be 64b0 4f3d 98a4 ee3d
00000090: 4bba 93bd 442d adbc 74eb 0a3e afb5 f5bd
000000a0: 1146 f7bc aa68 25be b9d7 5fbe 38b3 023d
000000b0: 0c31 5c3e 1fba b73d c956 3fbe c4ca 71bd
000000c0: c828 4e3d fb01 aabe b15b f4bd 3166 133c
000000d0: bad3 07be f3c1 47bb da0f 733c 48d4 a7bd
000000e0: e8de 103e 0f5c e6bd ad1a ddbd 70eb 1e3d
000000f0: 5432 aebd a8ae 593e d4ae ed3c bba4 33be
00000100: 9e2e 603b e20f c3b8 c73e 633b 4a8b 09bb
00000110: f40e b5b7 ad25 773b 967b 9735 aeaa 033b
00000120: 1139 7f3a 858d 05b6 e180 123a 30f7 ad3b
00000130: 03dd cf35 d1dc 7738 3249 45b4 94fd f239
00000140: 36e2 05b9 fb97 04b3 f627 8d39 fe53 5ebb
00000150: 5de9 1836 9875 c1b2 a806 f535 9629 8cba
00000160: 0950 0ab7 1e5d e93a 979a 0a3a 4587 cfba
00000170: 297a dfa9 0e09 cc38 254f 8bbb dd8d a1b9
00000180: 9f91 48bc c82b 31bd 5d0d 013d 2764 c0bc
00000190: f964 15bd 2172 603d 4509 ba3c 3f2d 413d
000001a0: 2bfb 1d3c 98a0 6fbc 43be 423d f8dd c43c
000001b0: 1684 aebc ad4d 143d ac00 073d d4dc 5e3d
000001c0: f458 51bd 5ea4 fdbb 3e5c 5a3d 330c 2a3b
000001d0: 4347 313c 283c f33c 0692 1e3d e325 3bbd
000001e0: 4e87 abba 790d 283d 1738 023d 8e78 1f3d
000001f0: c96f f8bb 6f30 313d 9ba4 03bd ee62 e73c
00000200: 4d53 e9bd e68e 16be 82dc ea3d bef8 1bbe
00000210: 6063 bcbc 8fda 00be a07a ea3c 4256 6e3c
00000220: 2432 143e 40ea d1bd 5724 bf3d c766 963d
00000230: 99ab 223e da59 813d 9631 78bd 89a9 d03c
00000240: b797 593d 69ce 3a3d 0534 203e 5780 123e
00000250: 72c3 5bbd 3721 98bc 9c67 f03d 06d9 18be
00000260: e0b1 e7bd 13be 9e3d d014 8ebc ca33 543c
00000270: 4aa3 75bd 8eb2 b4bd cc98 f6bd bf78 a73d
00000280: 5e74 df3c a4ea cebd c611 3ebc 7bd1 4a3d
00000290: 8fbc 203d 6072 98bd 70a8 f63d 43df 8abd
000002a0: e148 103c 55ab fcbd 5f00 02be 0fd2 3fbc
000002b0: 9405 243e df2c 3d3b b4e8 d7bd 8da4 c8bd
000002c0: 0939 e1ba 903c 43be 0df7 79bd 2308 4bbd
000002d0: e5e5 91bd 420d 013c 5918 07bd d388 05bd
000002e0: 1e0e a43d ee9d bbbc 178b 97bd ab7b ba3c
000002f0: 1230 abbd 478c cc3d deb2 c9bd d872 ddbc
00000300: 81a0 6b3c dd17 81bd 3b35 533c 6c85 1abd
00000310: 85c3 19bd e0e3 093d b471 453d 0107 f83c
00000320: 5064 0e3d cb84 cbbd 8d4f 4cbb 7117 833c
00000330: 2eab d83b 82d9 ca3c 7ef4 27bd 6c5a 2a3d
00000340: 29c1 90bc 065a e2bc c15b 423d e8dd 5abc
00000350: abce 873c 2670 c43d 2c45 1f3d f6fd 84bd
00000360: b695 89bb c03d 373d 6fc5 e93c 1b13 893c
00000370: d987 d9bd 2283 9a3d 3332 18bd 0f71 febb
00000380: b7b1 a5bd b076 733e 73b8 2a3d 9dc3 023e
00000390: 6fd1 033e 533a 23bd dbba 28be b4ee 2cbd
000003a0: 122e 5fbe 2799 e23d e793 ac3d 5b29 e8bc
000003b0: 86f4 17be b6e6 65be 4e03 3d3d ade6 09be
000003c0: bc06 1d3e 6847 e7bd b3ee 8cbc d437 13bd
000003d0: 7b5c 89be fc83 a2bd de53 66be 1e5a 5e3d
000003e0: e974 183e d26d 18be 912d 3bbe 787b c6bd
000003f0: 5a9d 8a3d 9b69 e8bd 21c9 253d 92e5 2abe
0.024517491 0.035261057 -0.20504838 -0.16184795 0.14778104 0.08599218 -0.16005528 0.027410137
0.0020854112 -0.016578829 0.07114017 0.049791235 0.01346158 -0.18586119 0.03451994 0.0524826
0.12348298 0.040250197 0.06533205 0.12608312 -0.118482165 0.067161106 0.07653607 -0.017264476
0.11123082 -0.14686656 -0.20188284 -0.09145475 0.019398024 -0.030588044 -0.019890517 0.0439256
-0.056214873 -0.22816846 0.05070533 0.116524875 -0.07213267 -0.021139748 0.1356638 -0.11997544
-0.030184777 -0.16153207 -0.21859635 0.031909198 0.21503085 0.08971047 -0.1868545 -0.059031263
0.05033186 -0.33204636 -0.11931551 0.008996532 -0.13264361 -0.0030480593 0.014835322 -0.08194786
0.14147532 -0.112480275 -0.107961036 0.03879875 -0.08505693 0.21258032 0.029014029 -0.17543308
0.0034207474 -9.301283e-05 0.003467487 -0.0020987564 -2.1583845e-05 0.0037711665 1.1286345e-06 0.0020090747
0.00097359816 -1.990092e-06 0.00055886625 0.005309008 1.5487025e-06 5.909504e-05 -1.8373683e-07 0.00046346767
-0.00012768139 -3.087187e-08 0.0002692339 -0.0033924575 2.27856e-06 -2.2521633e-08 1.825586e-06 -0.0010693546
-8.244076e-06 0.001780424 0.0005287318 -0.001583316 -9.924381e-14 9.7291646e-05 -0.004251378 -0.0003081401
-0.01224175 -0.043254644 0.031506885 -0.023485256 -0.03647325 0.05479634 0.022709498 0.04716229
0.009642403 -0.014625691 0.04754473 0.024031624 -0.021303218 0.03620689 0.032959625 0.054409817
-0.051110223 -0.0077405414 0.053310625 0.0025947213 0.010820213 0.02969177 0.038713478 -0.04569043
-0.0013086589 0.041028474 0.031791773 0.03893333 -0.007581685 0.04325908 -0.032139402 0.028245416
-0.113928415 -0.14702949 0.1146784 -0.15231606 -0.022996604 -0.12583373 0.028622925 0.014546933
0.14472252 -0.10249758 0.09333103 0.07343822 0.15885772 0.06315966 -0.060594164 0.025471466
0.053123202 0.045607004 0.15644844 0.1430677 -0.053653188 -0.018570526 0.11738512 -0.14926538
-0.11313224 0.077510975 -0.017343909 0.012951801 -0.059970178 -0.08823119 -0.120408624 0.08177327
0.027277168 -0.10103348 -0.011600917 0.049516182 0.039242323 -0.0744369 0.12043846 -0.06780865
0.008806438 -0.123373665 -0.12695454 -0.011707797 0.16017753 0.0028865857 -0.105424315 -0.097970106
-0.0017183135 -0.19066072 -0.06102662 -0.049568307 -0.07123927 0.007876696 -0.032982204 -0.03260119
0.08010505 -0.022902455 -0.07399576 0.022764048 -0.08358778 0.09987693 -0.09848569 -0.0270323
0.014381529 -0.0630338 0.012891109 -0.037724897 -0.037539978 0.033664584 0.04820414 0.030276777
0.034763634 -0.099374376 -0.0031175346 0.016002389 0.006612203 0.024761919 -0.04100465 0.04159014
-0.017670231 -0.027630817 0.047450785 -0.013358571 0.01657804 0.09591703 0.038884327 -0.06493752
-0.004198755 0.044736624 0.028536526 0.016732743 -0.10621614 0.07544543 -0.03715725 -0.0077649425
-0.08090537 0.23775744 0.04167981 0.12769933 0.12872861 -0.039850544 -0.1647753 -0.042219833
-0.21794918 0.11064368 0.08426648 -0.028340032 -0.14839372 -0.2245129 0.04614573 -0.13466902
0.153346 -0.112929165 -0.017203664 -0.035941914 -0.2682837 -0.0793533 -0.2249293 0.05428516
0.14888348 -0.14885643 -0.18279101 -0.096915185 0.06768294 -0.11348268 0.040475015 -0.16689137

gcn.lin_2.weight f4 [32, 32]
00000000: 849f 013d abf0 19bd db3e 49bc 0c45 5cbd
00000010: 7865 01be 8c90 813d 0078 82bc a080 0b3e
00000020: c1bd d23b 250a 0a3c aef0 b73a bc1f 043e
00000030: 7b58 583d c95b 563e ad9f 723e 03bd 063e
00000040: 4c16 a63d a73a 97bd 7ac7 873d 1fed ac3d
00000050: 390b 2c3e 4def c8bd 6430 823b 70c4 5b3d
00000060: 5d8b 80bc 1518 1abe db2a ebba 5223 ff3d
00000070: 3ddd df3d 8879 5c3e 1181 153e 9dad e33c
00000080: 289e 8e3d 60db 0d3d 33a0 4a3c 6dfd 523d
00000090: de54 b5bd 977d 913d 50c6 e93d 0107 893d
000000a0: e8b8 85bc 2fe2 55be 5465 a93d 070f 6ebe
000000b0: 26d9 af3d 1a4b 25be c03f 373d aced 63bd
000000c0: 3f7c 29be f872 5ebe 5c3f bd3b 423f 1cbd
000000d0: 50c6 903e 592d 1b3d 229e 523d 416a 2dbe
000000e0: 56ac 4f3e 20a7 8fbd 9f87 303d 225e 1c3e
000000f0: aab5 a53d 934a 7b3e 50d4 273d f08d 36bd
00000100: 9ad7 91bb 02f5 043d 2bda 94bc 4817 c3bc
00000110: 8004 25bd 6e07 e83d 9855 39bc 3ad5 0c3e
00000120: 833f c53a 9bb8 bebd c2fb a6bc 8ddc 503e
00000130: 24a0 de3c 95c3 583d e42f 6d3d 65f8 0c3c
00000140: 2a5f 4c3e 73e6 a4bd 9c66 58bd 94ad 643d
00000150: 2904 9d3c e1ae b13d 94c1 c43d e2ea 203e
00000160: 5b5f a23c 3311 633d 4efa cfbc 8b2f 0b3d
00000170: cb24 26be 3f4a 14be e1b2 873d 4019 43be
00000180: 96c1 89bd 799c e9be 48b5 2f3c caa8 193c
00000190: b16e 46be 76ce aabe 3988 08bd 96d1 ecbd
000001a0: 5675 c83b cb98 643d 9a75 133e d77f 1abe
000001b0: 7c0f a7bd 3df2 a4be 4263 b6bd 90e7 94be
000001c0: c70d b4be a290 06bd 00e0 b5bd 715c 83bd
000001d0: f167 debe 221e 073e 183d 3bbe 2763 6b3d
000001e0: b9ad a9be a505 46be 0545 24be b38a 13be
000001f0: b8e4 3dbe adc9 43bf 5661 88be d937 2cbd
00000200: 4598 d9bc 61fd 403c 4777 7abc 863d 22bd
00000210: e32d 55bd b218 423e 7f2c 07bc 86d7 fbbb
00000220: 2e44 fcbc b24e 553e 12ba d13d c5f0 293c
00000230: fae4 153e 876b c7bd 5a9e d63d a444 eb3d
00000240: 4c83 ce3d 318c 603c 1bac d03d 82c6 b53d
00000250: 41af 513e 2af9 5e3c 1eb8 9c3d 9fda b2bd
00000260: c06c 953d 1d94 7b3d d8e0 b23d 4119 4cbc
00000270: 2b87 283e 811e 9c3e 1524 453e e89b cabc
00000280: 2f1d 993d fc1d f43d 340d 31bc 4139 3ebd
00000290: 0a7c d03b c4bb 2a3e 65f1 a13c 311f fc3d
000002a0: 8bc0 d23c 9fc3 503e 8859 e93d 32a8 91bc
000002b0: 91cf 083e 4ec1 c5bd 3b7e 763d 028e d53d
000002c0: 5ca6 5b3e a628 0a3e a1f3 053e 2fe8 943c
000002d0: 50b2 9a3e c0d5 ddbd 589a 35bc 64c6 b53d
000002e0: 0af6 433e 6f51 a03d a8aa e63d 809f ef3d
000002f0: 1d59 033e 1b2f bb3e 09ae 1e3e cce3 e43d
00000300: 550f 403e 1376 46bd b5c4 68bc 9504 28bd
00000310: 1a61 033e ec07 1d3e 290d 37bd b1ac f33d
00000320: a83d bc3d 70dd 5a3d 6062 423e 372a a93d
00000330: f027 cf3d 725a bf39 9543 14be 641f f83d
00000340: af29 833e 20f0 e33d 1651 4e3d af33 8c3d
00000350: 7ae7 4c3e 3392 71bd 6318 6d3d 15f3 a83d
00000360: 8c41 56bd df16 4d3e b471 f43b 5321 d33d
00000370: 917e 043e d9d6 dd3d 8379 173e 6ed0 523e
00000380: 49c7 593e 445f 15be 181e 16ba 92a9 60bd
00000390: 5626 0dbe 706f 963d 7807 4638 c3d9 0c3c
000003a0: 9515 3c3d ecbe 7e3e 2953 5dbd d6f8 363d
000003b0: 484c 1e3e d49c 1b3e 1efb 1f3e 6fdb a33d
000003c0: 0910 fd3c 4491 eabd e3f3 d63d 963b 573d
000003d0: 4629 983e d414 75bd a8be 0f3d d2e6 ff3b
000003e0: 84c3 143e 36bb d13d 7ce3 4d3d 48de a2bd
000003f0: 4ee9 fbbd e4ea 603d ca13 1d3e 03e2 953c
0.031646267 -0.037583034 -0.012283052 -0.053776786 -0.12636364 0.06326398 -0.015926361 0.13623285
0.006431312 0.00842527 0.001403352 0.1290273 0.052818757 0.20933451 0.23693724 0.1315804
0.081097215 -0.07384234 0.06629844 0.08443665 0.16801156 -0.09811268 0.003973054 0.053654134
-0.015691454 -0.15048249 -0.0017941849 0.12457909 0.1093087 0.21530735 0.14600016 0.027792746
0.0696376 0.03463304 0.012367296 0.051511217 -0.08854078 0.071040325 0.11414778 0.06690789
-0.016323522 -0.20887063 0.0827128 -0.2324792 0.0858634 -0.1614193 0.04473853 -0.055646583
-0.16551302 -0.21723545 0.0057753753 -0.038146265 0.282763 0.037885044 0.05142034 -0.16935064
0.20280585 -0.070142984 0.04309809 0.15270284 0.0809129 0.24540167 0.04097396 -0.044568956
-0.0044507505 0.03246022 -0.018170437 -0.023814812 -0.040287495 0.11329542 -0.011311911 0.13753214
0.0015048835 -0.093125544 -0.02038372 0.20396633 0.02717597 0.052920897 0.057907 0.008604144
0.19958177 -0.08051767 -0.05283223 0.0558296 0.019167023 0.08675934 0.096072346 0.157146
0.01982086 0.055436324 -0.02538791 0.033980887 -0.16224973 -0.14481448 0.06625915 -0.19052601
-0.06726377 -0.45627192 0.010724373 0.009378621 -0.19378163 -0.33360642 -0.033333037 -0.11563413
0.006117503 0.055809777 0.1440033 -0.1508783 -0.0815725 -0.32216063 -0.08905651 -0.29082918
-0.3516676 -0.032852776 -0.08880615 -0.06414116 -0.43438676 0.13195089 -0.18285024 0.057467606
-0.33140352 -0.1933809 -0.16041954 -0.14408378 -0.1854428 -0.7647961 -0.2663676 -0.042045448
-0.026561866 0.01177916 -0.015287227 -0.039609455 -0.052045714 0.18954733 -0.008250355 -0.0076856045
-0.03079423 0.20830801 0.10240568 0.010372345 0.14638129 -0.09737306 0.10479422 0.114877015
0.10083637 0.013705299 0.101890765 0.08875753 0.2047701 0.01360921 0.07652305 -0.08733105
0.07296133 0.06142055 0.08734292 -0.012457193 0.16457812 0.30492023 0.19252045 -0.024732545
0.074762695 0.119197816 -0.0108063705 -0.04644132 0.006362443 0.1667319 0.019768426 0.12310637
0.025726577 0.20387124 0.1139403 -0.017780397 0.1336043 -0.096560106 0.060178977 0.104274765
0.2145018 0.13492069 0.13081218 0.01817712 0.30214167 -0.10831785 -0.011084162 0.08875731
0.19136825 0.07828032 0.11263019 0.11700344 0.12826963 0.36559376 0.15496077 0.11176261
0.18755849 -0.048452448 -0.014207055 -0.041019995 0.1283001 0.15335053 -0.044690285 0.11898173
0.091914475 0.053433836 0.1898284 0.08260005 0.10115039 0.00036497746 -0.14478905 0.12115362
0.2561774 0.111297846 0.0503703 0.06845795 0.20010176 -0.058977317 0.057884585 0.08249489
-0.052308604 0.20028256 0.0074598435 0.103090905 0.12938906 0.108319946 0.14792447 0.20587322
0.21267428 -0.14587122 -0.000572653 -0.054849215 -0.13784155 0.07345474 4.7213834e-05 0.00859684
0.04591902 0.24877518 -0.054034386 0.044670902 0.15458786 0.15196544 0.15623137 0.08000838
0.030891435 -0.114534885 0.104957364 0.05254706 0.2971899 -0.059834316 0.035093933 0.0078094983
0.14527708 0.10240786 0.050265774 -0.07952553 -0.12300359 0.05491151 0.1533958 0.018296247

gcn.lin_2.bias f4 [32]
00000000: 89b8 373e b73d 82bd 4a4c 5fbe f954 a63d
00000010: 6a10 243d 66b6 97bc f219 d23d 5eda 05bc
00000020: 84e0 f4bb a6dd 313e 4e4b 0c3e 69eb 80bd
00000030: 0d94 583c 51c8 e63d 9354 133d ac37 01be
00000040: 2ae9 2a3d 642c 863d cb88 6ebe fc0e 46be
00000050: 8ae2 4dbe 8ba0 433e 5f10 0cbe 5ca6 0a3e
00000060: f5d4 4dbd d220 13bc ade6 02bd 341a 20bc
00000070: 8d39 a03c 4a7b 12be 4fc0 49be e10c 87be
0.17941488 -0.063594274 -0.21806446 0.08121676 0.040054716 -0.018519592 0.10258855 -0.008169739
-0.0074730534 0.17369708 0.13700601 -0.06294901 0.013218892 0.11268676 0.035969328 -0.12618893
0.04172627 0.065514356 -0.2329437 -0.19341654 -0.20105949 0.19104211 -0.1367812 0.13540024
-0.05025192 -0.008979993 -0.03195827 -0.009771872 0.019558692 -0.14304844 -0.19702266 -0.26377013

nf.base_dist_mean f4 [123, 1]
00000000: 0000 0000 0000 0000 0000 0000 0000 0000
00000010: 0000 0000 0000 0000 0000 0000 0000 0000
00000020: 0000 0000 0000 0000 0000 0000 0000 0000
00000030: 0000 0000 0000 0000 0000 0000 0000 0000
00000040: 0000 0000 0000 0000 0000 0000 0000 0000
00000050: 0000 0000 0000 0000 0000 0000 0000 0000
00000060: 0000 0000 0000 0000 0000 0000 0000 0000
00000070: 0000 0000 0000 0000 0000 0000 0000 0000
00000080: 0000 0000 0000 0000 0000 0000 0000 0000
00000090: 0000 0000 0000 0000 0000 0000 0000 0000
000000a0: 0000 0000 0000 0000 0000 0000 0000 0000
000000b0: 0000 0000 0000 0000 0000 0000 0000 0000
000000c0: 0000 0000 0000 0000 0000 0000 0000 0000
000000d0: 0000 0000 0000 0000 0000 0000 0000 0000
000000e0: 0000 0000 0000 0000 0000 0000 0000 0000
000000f0: 0000 0000 0000 0000 0000 0000 0000 0000
00000100: 0000 0000 0000 0000 0000 0000 0000 0000
00000110: 0000 0000 0000 0000 0000 0000 0000 0000
00000120: 0000 0000 0000 0000 0000 0000 0000 0000
00000130: 0000 0000 0000 0000 0000 0000 0000 0000
00000140: 0000 0000 0000 0000 0000 0000 0000 0000
00000150: 0000 0000 0000 0000 0000 0000 0000 0000
00000160: 0000 0000 0000 0000 0000 0000 0000 0000
00000170: 0000 0000 0000 0000 0000 0000 0000 0000
00000180: 0000 0000 0000 0000 0000 0000 0000 0000
00000190: 0000 0000 0000 0000 0000 0000 0000 0000
000001a0: 0000 0000 0000 0000 0000 0000 0000 0000
000001b0: 0000 0000 0000 0000 0000 0000 0000 0000
000001c0: 0000 0000 0000 0000 0000 0000 0000 0000
000001d0: 0000 0000 0000 0000 0000 0000 0000 0000
000001e0: 0000 0000 0000 0000 0000 0000
0.0 0.0 0.0 0.0 0.0 0.0 0.0 0.0
0.0 0.0 0.0 0.0 0.0 0.0 0.0 0.0
0.0 0.0 0.0 0.0 0.0 0.0 0.0 0.0
0.0 0.0 0.0 0.0 0.0 0.0 0.0 0.0
0.0 0.0 0.0 0.0 0.0 0.0 0.0 0.0
0.0 0.0 0.0 0.0 0.0 0.0 0.0 0.0
0.0 0.0 0.0 0.0 0.0 0.0 0.0 0.0
0.0 0.0 0.0 0.0 0.0 0.0 0.0 0.0
0.0 0.0 0.0 0.0 0.0 0.0 0.0 0.0
0.0 0.0 0.0 0.0 0.0 0.0 0.0 0.0
0.0 0.0 0.0 0.0 0.0 0.0 0.0 0.0
0.0 0.0 0.0 0.0 0.0 0.0 0.0 0.0
0.0 0.0 0.0 0.0 0.0 0.0 0.0 0.0
0.0 0.0 0.0 0.0 0.0 0.0 0.0 0.0
0.0 0.0 0.0 0.0 0.0 0.0 0.0 0.0
0.0 0.0 0.0

nf.base_dist_var f4 [123, 1]
00000000: 0000 803f 0000 803f 0000 803f 0000 803f
00000010: 0000 803f 0000 803f 0000 803f 0000 803f
00000020: 0000 803f 0000 803f 0000 803f 0000 803f
00000030: 0000 803f 0000 803f 0000 803f 0000 803f
00000040: 0000 803f 0000 803f 0000 803f 0000 803f
00000050: 0000 803f 0000 803f 0000 803f 0000 803f
00000060: 0000 803f 0000 803f 0000 803f 0000 803f
00000070: 0000 803f 0000 803f 0000 803f 0000 803f
00000080: 0000 803f 0000 803f 0000 803f 0000 803f
00000090: 0000 803f 0000 803f 0000 803f 0000 803f
000000a0: 0000 803f 0000 803f 0000 803f 0000 803f
000000b0: 0000 803f 0000 803f 0000 803f 0000 803f
000000c0: 0000 803f 0000 803f 0000 803f 0000 803f
000000d0: 0000 803f 0000 803f 0000 803f 0000 803f
000000e0: 0000 803f 0000 803f 0000 803f 0000 803f
000000f0: 0000 803f 0000 803f 0000 803f 0000 803f
00000100: 0000 803f 0000 803f 0000 803f 0000 803f
00000110: 0000 803f 0000 803f 0000 803f 0000 803f
00000120: 0000 803f 0000 803f 0000 803f 0000 803f
00000130: 0000 803f 0000 803f 0000 803f 0000 803f
00000140: 0000 803f 0000 803f 0000 803f 0000 803f
00000150: 0000 803f 0000 803f 0000 803f 0000 803f
00000160: 0000 803f 0000 803f 0000 803f 0000 803f
00000170: 0000 803f 0000 803f 0000 803f 0000 803f
00000180: 0000 803f 0000 803f 0000 803f 0000 803f
00000190: 0000 803f 0000 803f 0000 803f 0000 803f
000001a0: 0000 803f 0000 803f 0000 803f 0000 803f
000001b0: 0000 803f 0000 803f 0000 803f 0000 803f
000001c0: 0000 803f 0000 803f 0000 803f 0000 803f
000001d0: 0000 803f 0000 803f 0000 803f 0000 803f
000001e0: 0000 803f 0000 803f 0000 803f
1.0 1.0 1.0 1.0 1.0 1.0 1.0 1.0
1.0 1.0 1.0 1.0 1.0 1.0 1.0 1.0
1.0 1.0 1.0 1.0 1.0 1.0 1.0 1.0
1.0 1.0 1.0 1.0 1.0 1.0 1.0 1.0
1.0 1.0 1.0 1.0 1.0 1.0 1.0 1.0
1.0 1.0 1.0 1.0 1.0 1.0 1.0 1.0
1.0 1.0 1.0 1.0 1.0 1.0 1.0 1.0
1.0 1.0 1.0 1.0 1.0 1.0 1.0 1.0
1.0 1.0 1.0 1.0 1.0 1.0 1.0 1.0
1.0 1.0 1.0 1.0 1.0 1.0 1.0 1.0
1.0 1.0 1.0 1.0 1.0 1.0 1.0 1.0
1.0 1.0 1.0 1.0 1.0 1.0 1.0 1.0
1.0 1.0 1.0 1.0 1.0 1.0 1.0 1.0
1.0 1.0 1.0 1.0 1.0 1.0 1.0 1.0
1.0 1.0 1.0 1.0 1.0 1.0 1.0 1.0
1.0 1.0 1.0

nf.net.0.net_input.weight f4 [32, 1]
00000000: 5aa7 48bf 8841 fe3e 7ceb 44bf 6256 433c
00000010: a773 85be ecb4 1d3f 8445 3a3f bd69 28bf
00000020: 6e8a 9cbe 1485 49bf fbc4 28bf 7193 ae3e
00000030: c022 7abf 480b 2ebf 6b83 c0be 6a2d 103f
00000040: a849 543f f02b b63e 1cbd 5dbf d12b 02bd
00000050: ff69 02bf ab82 81bd 6161 153f d8f4 55bc
00000060: a2b8 403f 2a42 52bf ad95 643f 623c 363f
00000070: 506f 14bf d04a 333f c835 20bf feb9 09bf
-0.7838036 0.4965937 -0.7692182 0.011922451 -0.26064798 0.6160419 0.7276232 -0.65786344
-0.30574363 -0.78718686 -0.6592557 0.34096864 -0.97709274 -0.67985964 -0.37600264 0.56319296
0.8292489 0.35580397 -0.86616683 -0.031780068 -0.5094299 -0.06323751 0.58351713 -0.013058864
0.7528173 -0.8213221 0.8929089 0.71185887 -0.5798235 0.7003603 -0.62582064 -0.53799427

nf.net.0.net_input.bias f4 [32]
00000000: 36f2 5bbf 5f84 433e 5c47 d83e 6c04 9f3e
00000010: e4ac 483f e0c0 25bf 588c 1bbf cf8a 7dbf
00000020: 52a3 65bf 7d10 cfbe 686b 6abc 7dd8 49bf
00000030: cb4e 5f3f 1f50 62bf a536 47bf 3e05 dc3e
00000040: 34c3 743f 4907 f63d 1e96 e13d 80e7 573d
00000050: 0554 66bf 8925 4e3f 23c9 75bd a037 c13e
00000060: 47ae 5f3e e6e0 4a3f a70d 753c 0172 28bf
00000070: 5a5c df3e c05f ac3e edbe 093f 9805 40bf
-0.8591646 0.19093464 0.42241943 0.3105806 0.7838881 -0.6474743 -0.6076102 -0.9903993
-0.8970233 -0.40442267 -0.014307834 -0.7884596 0.87229604 -0.88403505 -0.77817756 0.4297275
0.95610356 0.12013108 0.11014961 0.05271101 -0.89971954 0.80526024 -0.060006272 0.3773775
0.21843825 0.7924942 0.014956868 -0.65798956 0.43625146 0.336668 0.53806955 -0.75008535

nf.net.0.net_input.cond_weight f4 [32, 32]
00000000: 4e21 1e3d 6413 3fbd 09f8 9a3d b467 c33d
00000010: 8fa6 ae3d 4576 debb f18a 013d 9b7a 423e
00000020: d8db 213d 2362 e63d 3566 8b3d 081d 173e
00000030: 43ce 2a3e 3c84 f13c 29cf 803d cb18 1dbc
00000040: 72ad 1f3e e70c 6a3e 014c 053e 02f6 2d3e
00000050: 233b 373e 306c cb3c 3d76 8d3c 55d8 d33d
00000060: 9335 423d 5c9e e63d ad7b 3e3c 6aa5 563e
00000070: c482 31bd 06a2 3d3e 1f6d 203e fcad 393e
00000080: 7f61 11bd 241f 833e 01e6 453e 78e4 e93d
00000090: 6ef5 9dbc f4bf 8fbd e999 b93a c470 323c
000000a0: 3b81 40bd 09ec 5bbd 5df2 4dbd c9f9 3d3e
000000b0: b915 c0bb ef1f 5b3d 3e25 2f3e 6244 3f3e
000000c0: 1bb0 823d ec50 02be 2076 623e f047 3c3e
000000d0: f5da 2f3e 7907 57bd c020 e03d f093 a93d
000000e0: bc70 ee3d c3b4 69bd 20ce cd3d 021a d43d
000000f0: abe3 c13d 66f7 113e 06e1 c83d 22c7 5d3e
00000100: d40b 013e 40db 94bd 8885 f1bc 3eb2 6ebd
00000110: 11dc 063e e46a 3a3e 4ac3 713d 3815 093e
00000120: f5ce d73d 5cb7 0f3e 49dc f03d 9821 5fbc
00000130: b69e 6b3e 1126 343e 02e5 cc3d 055e 693d
00000140: ca52 693d c835 8f3e 7443 943d 6266 6f3d
00000150: 10f5 103e 5c0b ff3d aaec da3d b59e 003e
00000160: cff2 e53d 6655 cf3d a992 063d 2719 1b3e
00000170: 8e10 9b3d 273c 59bc d812 8d3d 567f cd3d
00000180: 1493 973d c623 863e 6f4c 8a3e 3897 4d3e
00000190: 09c5 0fbd 6750 c23c 81e2 d53c afbc c6bd
000001a0: b302 e1bb 4d33 9d3d 1269 fc3d d07d ae3d
000001b0: 5027 74bd 17cd 23bd 9406 713d fdfd 423e
000001c0: f1e3 553e 7e65 03be 5bcd 3f3e e36c 513e
000001d0: 37f6 e63d dde6 063e bf25 6c3e 2644 6d3e
000001e0: 8464 f13d e346 2a3c 8a2c d33d d1ab ce3d
000001f0: bea2 d63d 88e3 a33d a129 2b3d 2c46 1a3e
00000200: 2af1 1cbd 1a02 2a3e bb7b 0b3e d5aa 113e
00000210: 5b13 0e3d d691 b13c a552 1a3d 1dc1 953a
00000220: e9ef da3c 6251 5f3d 706d b93d d6b8 343e
00000230: 4b68 0e3d 76d6 7dbd 38f4 093e 1de8 093e
00000240: d8f8 523e 4ab1 eb3d 9dce 733e d58d c43d
00000250: 8fc9 483e 39a3 4fbd 979e 213e a218 f23d
00000260: 080e f83d c353 443d 20f7 2f3e 70f0 cebd
00000270: cfab a53d 489c f73d a8e8 3e3e 244f d43d
00000280: 1df9 823d 21b3 83bd 6058 9ebc 1b55 39be
00000290: 9e05 373e 2cc6 c63d e6bb 2c3d 46b1 a63d
000002a0: e1c9 2f3e b4f4 2f3e 3b35 5b3e 28c6 e4bd
000002b0: be05 073e cd6a 153e fd1a 6abc b4bd db3d
000002c0: c6bd 89bd 2c0b 213e 74aa ddbc e047 e9bc
000002d0: 5112 413d 574c 9a3d 6682 663d ead0 e73c
000002e0: b783 49bc 11da bc3c 3ce0 84bc bbf9 33bd
000002f0: ede9 713c f66e b43d 4ee8 f43d 44c9 d43d
00000300: d56b 1d3e a4de babd 1514 43bd a6d2 b8bd
00000310: 2bdf 7e3e 8e8e 653e b78b a83d 763a 803e
00000320: 5786 073e 4f02 f93d 6960 403e 3cbe 5d3d
00000330: 097f a13e aded 593e 2537 963d 452a f63c
00000340: 3fee 37be 578a 533e 48f4 dbbd 6d80 89bc
00000350: 6626 18bd ba24 793e 5fd4 6fbd 0405 6c3d
00000360: 04f8 43be 12a5 833e bbe7 5cbd 0dd9 c43d
00000370: 6c7c bebd 3889 633d 1b4d 7d3b bffa 5bbd
00000380: 29fd 103e bf59 8ebd e9a2 2abd bcd5 99bd
00000390: 01c9 5d3e da90 803d e4da 063e 5c78 bf3d
000003a0: 9696 0c3e 34f3 1c3e 0175 213e e4c7 763d
000003b0: b26a 803e 2be2 193e 43ca 503d c46c 2c3c
000003c0: 2e1e ad3d 765d a43e b9a7 8a3d ce03 8abc
000003d0: 16f1 d73c 2850 293d e31b bfbc 5c04 b03c
000003e0: 79cd b23b c534 013e 8f28 653d d129 e53d
000003f0: 98fc abbd 0982 ed3d 6f3a b43d 24e2 0b3e
0.03860598 -0.04664935 0.0756684 0.09541264 0.08527862 -0.006789001 0.031626645 0.18992083
0.0395163 0.11249187 0.06806604 0.14757168 0.16680245 0.029482 0.06289513 -0.009588431
0.15593508 0.22856484 0.13017274 0.16988376 0.17893653 0.024831861 0.017268294 0.103439964
0.047414374 0.112606734 0.011626166 0.20961538 -0.0433376 0.18518838 0.15666626 0.18132776
-0.03549337 0.25609696 0.19326021 0.1142053 -0.019282069 -0.07019034 0.0014160249 0.010891143
-0.046998244 -0.053691898 -0.050279964 0.18552317 -0.0058619645 0.05349725 0.1710405 0.1867843
0.06381246 -0.12726182 0.22115374 0.18386817 0.17173369 -0.05249736 0.109437466 0.0828017
0.11642596 -0.057057153 0.10049081 0.10356523 0.09467252 0.14254531 0.09808545 0.21657994
0.12602168 -0.07268381 -0.029482618 -0.058275454 0.13169886 0.18204838 0.059024133 0.13387
0.10537521 0.1403479 0.11760766 -0.013618849 0.23009762 0.17592646 0.10004617 0.05697443
0.05696372 0.2797072 0.07239428 0.05844725 0.14155984 0.124533385 0.10689671 0.12560542
0.11227953 0.1012371 0.03285471 0.15146314 0.07571517 -0.01325897 0.0688836 0.10034053
0.074011 0.26199168 0.2701144 0.20077217 -0.035100017 0.02371998 0.026108982 -0.09703957
-0.006866777 0.076758005 0.12324728 0.085200906 -0.059607804 -0.03999051 0.058844164 0.19042201
0.20887734 -0.12831685 0.1873068 0.20451693 0.112774305 0.13174005 0.23061274 0.23170528
0.1178675 0.010392877 0.103112295 0.10091365 0.10480259 0.080023825 0.041787747 0.15065831
-0.03831593 0.16602364 0.13621418 0.14225323 0.034686428 0.021675985 0.037676472 0.001142535
0.026725726 0.054520972 0.09054077 0.17648634 0.03476743 -0.061972104 0.13472068 0.1346745
0.20602739 0.115084246 0.23809285 0.09597365 0.19608139 -0.05069277 0.15783153 0.118211046
0.12112051 0.047931444 0.17184114 -0.101044536 0.080894105 0.12090355 0.18643439 0.103666574
0.06395171 -0.064306505 -0.01932925 -0.18098871 0.17873237 0.09705767 0.04217138 0.08139281
0.17166854 0.1718319 0.21407025 -0.11170608 0.13185784 0.14591523 -0.014288661 0.107295424
-0.067256495 0.15726918 -0.027058817 -0.028476655 0.04713661 0.07534092 0.0562767 0.02829786
-0.01229947 0.0230532 -0.016220205 -0.043939333 0.014765245 0.088102266 0.11958371 0.10389951
0.15373166 -0.091244966 -0.047626574 -0.09024553 0.2488982 0.22417662 0.082297735 0.25044602
0.1323484 0.121586435 0.18786778 0.0541365 0.31542233 0.21282072 0.07334737 0.030049453
-0.17961977 0.20658241 -0.10739952 -0.016784871 -0.037145995 0.24330416 -0.058552142 0.05762197
-0.19137579 0.25711876 -0.053931933 0.09611712 -0.09301075 0.055550784 0.0038650695 -0.053705927
0.14159073 -0.069507115 -0.04165927 -0.0751147 0.21658708 0.06277628 0.13169438 0.093491286
0.13729319 0.1532715 0.1576729 0.060249224 0.25081402 0.15027682 0.05097414 0.010523979
0.08453022 0.32102555 0.06770272 -0.016847517 0.026360076 0.04133621 -0.023328727 0.021486454
0.005456623 0.12617786 0.055946883 0.111896165 -0.08397788 0.11597068 0.08800208 0.13660485

nf.net.0.net_input.mask f4 [32, 1]
00000000: 0000 803f 0000 803f 0000 803f 0000 803f
00000010: 0000 803f 0000 803f 0000 803f 0000 803f
00000020: 0000 803f 0000 803f 0000 803f 0000 803f
00000030: 0000 803f 0000 803f 0000 803f 0000 803f
00000040: 0000 803f 0000 803f 0000 803f 0000 803f
00000050: 0000 803f 0000 803f 0000 803f 0000 803f
00000060: 0000 803f 0000 803f 0000 803f 0000 803f
00000070: 0000 803f 0000 803f 0000 803f 0000 803f
1.0 1.0 1.0 1.0 1.0 1.0 1.0 1.0
1.0 1.0 1.0 1.0 1.0 1.0 1.0 1.0
1.0 1.0 1.0 1.0 1.0 1.0 1.0 1.0
1.0 1.0 1.0 1.0 1.0 1.0 1.0 1.0
