checkpoint/MSL/model.pth (torch, 115013 bytes, 37 tensors)

rnn.weight_ih_l0 f4 [128, 1]
-0.007897705 0.046726733 -0.04039861 0.037241183 0.01096121 -0.07197484 -0.12848155 -0.12994121
0.018609146 0.14851719 -0.11220906 0.14719576 -0.13562074 0.028516216 0.0092268605 -0.08590896
0.106673256 -0.10013912 0.07900261 0.04611068 0.13446951 -0.051679026 0.10802522 0.06933933
-0.010615245 -0.06690878 -0.02925251 0.0012531683 -0.128641 -0.025823459 -0.07770193 -0.033526793
-0.010022325 0.011278211 -0.080348805 -0.02208137 -0.052270617 0.07427971 -0.10882597 -0.061868314
-0.06367725 -0.09542076 0.056519292 0.053575527 -0.10020926 -0.014212618 0.07000397 0.010033102
-0.037876874 0.09944854 -0.042928327 -0.09483433 -0.02746601 0.06263943 -0.09628231 -0.098460324
0.03332848 -0.06685596 -0.053632297 -0.0555904 -0.0351143 0.027219078 -0.08124712 0.05038627
-0.15398486 0.07626366 0.11298512 0.18761288 -0.024513992 0.060038697 0.0112057505 0.053037915
-0.024175363 -0.094634995 -0.12833673 -0.09545823 -0.15941873 -0.023476139 0.12011459 0.11052069
0.14007439 0.11186124 0.09253752 -0.05899384 -0.21425223 0.12898374 -0.12464824 -0.152937
0.07986916 -0.1542408 -0.058911227 0.12187296 0.17867422 -0.010461582 0.069888994 -0.1689819
-0.1016464 -0.028150832 -0.09785109 -0.03820965 -0.03850977 -0.024301756 0.019469557 -0.0676353
-0.061200656 -0.041252404 0.025543949 0.08706206 -0.13888991 -0.100224346 -0.08142797 0.083584234
0.065079734 -0.13265677 0.12869725 -0.028662842 -0.07570686 0.081834175 -0.13941777 0.08817758
0.059883397 -0.024668422 -0.09613344 -0.076407425 -0.1016384 -0.018158384 -0.051397856 -0.060446404
00000000: 6065 01bc 8864 3f3d 0379 25bd 368a 183d
00000010: a696 333c 8b67 93bd ab90 03be 4f0f 05be
00000020: 3572 983c e414 183e ddcd e5bd 7cba 163e
00000030: 2ae0 0abe d79a e93c 422c 173c 09f1 afbd
00000040: 8277 da3d bd15 cdbd 1fcc a13d 8dde 3c3d
00000050: 60b2 093e 63ad 53bd 543c dd3d c701 8e3d
00000060: 91eb 2dbc 7807 89bd f6a2 efbc 5a41 a43a
00000070: 77ba 03be b88b d3bc 3122 9fbd 6453 09bd
00000080: ae34 24bc 3fc8 383c ea8d a4bd fde3 b4bc
00000090: b719 56bd f61f 983d 26e0 debd a169 7dbd
000000a0: 3869 82bd f66b c3bd c680 673d 0372 5b3d
000000b0: 833a cdbd 0adc 68bc 3e5e 8f3d e161 243c
000000c0: c824 1bbd adab cb3d 9dd5 2fbd 8038 c2bd
000000d0: 6600 e1bc 1a49 803d a92f c5bd 91a5 c9bd
000000e0: 7283 083d c7eb 88bd 8aad 5bbd c2b2 63bd
000000f0: 03d4 0fbd 8bfa de3c e464 a6bd d561 4e3d
00000100: 35ae 1dbe 1f30 9c3d be64 e73d 971d 403e
00000110: 91d1 c8bc 23eb 753d 5398 373c 493e 593d
00000120: 690b c6bc fecf c1bd b46a 03be 9b7f c3bd
00000130: aa3e 23be 0851 c0bc a3fe f53d ac58 e23d
00000140: a96f 0f3e 8117 e53d 5084 bd3d 86a3 71bd
00000150: f064 5bbe 5014 043e 9447 ffbd 849b 1cbe
00000160: 7192 a33d 4df1 1dbe e64c 71bd 8898 f93d
00000170: 60f6 363e 0e67 2bbc f621 8f3d 9709 2dbe
00000180: fd2b d0bd 939c e6bc 2766 c8bd b981 1cbd
00000190: 6cbc 1dbd 7a14 c7bc 9f7e 9f3c 6084 8abd
000001a0: 8aad 7abd 48f8 28bd 8b41 d13c 984d b23d
000001b0: 2839 0ebe 6c42 cdbd b5c3 a6bd 362e ab3d
000001c0: 8648 853d 2dd7 07be 36c9 033e 56ce eabc
000001d0: 330c 9bbd ad98 a73d 88c3 0ebe 7296 b43d
000001e0: 4b48 753d 6e15 cabc 9ce1 c4bd 7f7b 9cbd
000001f0: cb27 d0bd e4c0 94bc 8f86 52bd a696 77bd

rnn.weight_hh_l0 f4 [128, 32]
0.1011266 -0.08595789 0.07751934 -0.108321115 -0.08315984 -0.13396744 0.13669579 -0.05574716
-0.03475191 -0.12645291 0.08705884 0.094919875 -0.12526925 0.07382506 0.00072171015 -0.0043144673
0.06951107 -0.008164461 0.11100138 0.07049071 0.11924812 -0.02073008 0.01610823 -0.13453585
-0.10672685 0.1149223 -0.12666467 -0.07399004 -0.064970694 -0.009608785 -0.048409548 0.015946139
0.06783664 -0.011690559 -0.060968224 -0.0073772 0.023801526 -0.06777078 0.03336633 -0.07151403
0.024026856 0.0022534083 -0.066703215 -0.026077216 -0.0019950676 0.030133586 0.032625478 0.0010778658
0.036694482 -0.015874138 -0.009053967 0.004487626 0.035160474 0.01817902 -0.003042778 -0.054961935
0.0070453533 0.020430937 -0.04429634 0.04244862 -0.00082463695 0.028086951 0.0046124146 0.002064382
0.06495633 -0.0027593616 0.00991248 0.0807103 0.049412366 0.013335921 -0.14588943 0.10765418
0.08209258 -0.035711315 0.026701711 -0.041424755 0.0025159747 0.06983087 0.105518796 -0.027256116
-0.11326334 0.10199415 0.012592559 0.0354176 0.031784438 -0.032368112 -0.05916847 -0.0055572963
0.017497517 0.047706015 -0.0053102095 0.039904445 -0.046279944 0.028961733 -0.16479653 -0.005395719
0.0036777484 -0.050399575 0.0023958224 -0.003170601 -0.082632855 -0.074701615 0.03216581 0.034040615
-0.010779071 -0.048873503 -0.09372734 0.02432982 -0.04235777 -0.024869332 -0.036724165 0.014565314
0.0033736434 0.0130570475 -0.010615627 0.024372699 0.066434205 -0.015924506 0.00023635384 0.070297614
0.026918994 -0.09617507 -0.02866594 0.00042354965 0.06429098 0.025419552 0.1063752 -0.061118275
-0.062353995 0.019394038 -0.06489726 0.027228523 0.02677912 0.12942395 -0.10110894 0.06497696
-0.038059887 -0.018835993 0.06177908 -0.024865864 0.06734836 0.042710323 -0.101592995 -0.043486163
0.052518524 0.03555034 0.04222357 -0.016724112 -0.032843843 -0.0078299185 0.13569887 0.04421516
0.028163591 0.016342036 0.12886529 -0.08934108 -0.016502988 0.07858022 0.049944352 0.027972417
0.09738162 0.0397704 0.14713393 0.026863968 -0.103010446 -0.07816134 0.13343169 -0.13035038
0.0044898703 0.05183916 0.11341906 0.018854106 -0.07385999 0.022219557 -0.038779974 -0.013714793
-0.030790033 -0.011585015 0.08516881 0.02444801 0.040260755 0.02584654 -0.13315046 -0.030878698
-0.09741398 -0.022415664 -0.11789716 -0.015942268 -0.05801777 -0.007154808 -0.09723188 -0.12200521
0.13092944 0.051383656 -0.0989773 0.094695 -0.14555225 0.03678994 -0.11276202 -0.07403529
-0.03607245 0.021931741 -0.060491625 -0.05033915 -0.07024463 0.03350578 0.108304456 0.013030874
0.08614004 0.13533571 0.025541084 -0.008183192 0.019459274 -0.12754554 0.020283379 -0.06628431
-0.028152209 0.014014834 0.047188234 -0.07372258 -0.048726812 -0.0010656941 0.10893858 -0.020381996
-0.09189872 -0.017552258 0.0031550883 -0.033719346 0.09271824 0.09471326 0.12905681 0.07559676
0.016362656 -0.01273583 0.07873625 0.0070947083 0.012608555 0.03626642 0.13381283 -0.014128623
-0.025109163 -0.03019346 0.0010345968 -0.117919266 0.055210754 0.0074622906 0.037092626 -0.062338095
0.017205989 -0.048763588 -0.077758156 0.10068865 0.08966954 0.12414056 -0.054813053 0.026587946
00000000: 761b cf3d b10a b0bd 76c2 9e3d 76d7 ddbd
00000010: b54f aabd c32e 09be fbf9 0b3e 2257 64bd
00000020: 0558 0ebd df7c 01be e84b b23d 5a65 c23d
00000030: 9546 00be 9831 973d 2631 3d3a 6060 8dbb
00000040: d25b 8e3d 3bc4 05bc b154 e33d 6f5d 903d
00000050: 5c38 f43d 21d2 a9bc 68f5 833c c4c3 09be
00000060: 9b93 dabd 625c eb3d 62b4 01be 1788 97bd
00000070: 5b0f 85bd 2a6e 1dbc 1749 46bd 7aa1 823c
00000080: f0ed 8a3d c289 3fbc d1b9 79bd 70bc f1bb
00000090: 6bfb c23c 68cb 8abd 22ab 083d f375 92bd
000000a0: f8d3 c43c ebad 133b b29b 88bd e39f d5bc
000000b0: aebf 02bb b6da f63c 4ba2 053d 2d47 8d3a
000000c0: f44c 163d 7b0a 82bc 1757 14bc ef0c 933b
000000d0: 6e04 103d 2bec 943c 5869 47bb c41f 61bd
000000e0: b5dc e63b c85e a73c 1470 35bd 9bde 2d3d
000000f0: 732c 58ba 9b16 e63c bd23 973b 954a 073b
00000100: d307 853d 68d6 34bb f467 223c 714b a53d
00000110: 9f64 4a3d e87e 5a3c 0a64 15be cb79 dc3d
00000120: 2820 a83d 0746 12bd 8cbd da3c 01ad 29bd
00000130: 0de3 243b 7d03 8f3d 3d1a d83d 3848 dfbc
00000140: 9cf6 e7bd 4fe2 d03d 0551 4e3c 0c12 113d
00000150: 6630 023d 6d94 04bd a35a 72bd fb19 b6bb
00000160: f456 8f3c 6267 433d 4401 aebb d872 233d
00000170: 0a90 3dbd 2841 ed3c 6cc0 28be 92ce b0bb
00000180: 6106 713b c96f 4ebd 3b03 1d3b dcc9 4fbb
00000190: 6a3b a9bd 29fd 98bd 4cc0 033d 2c6e 0b3d
000001a0: b39a 30bc 952f 48bd 1ff4 bfbd 554f c73c
000001b0: 577f 2dbd c5ba cbbc 146c 16bd 5ba3 6e3c
000001c0: 5818 5d3b 3aed 553c 2bed 2dbc 41a9 c73c
000001d0: a80e 883d 1c74 82bc c0d5 7739 32f8 8f3d
000001e0: 3985 dc3c 6ff7 c4bd d5d4 eabc df0f de39
000001f0: fdaa 833d aa3c d03c 3edb d93d 2857 7abd
00000200: e766 7fbd 3fe0 9e3c dbe8 84bd 5a0e df3c
00000210: e35f db3c b687 043e 3412 cfbd a412 853d
00000220: afe4 1bbd f14d 9abc 100c 7d3d 7fb3 cbbc
00000230: f0ed 893d 05f1 2e3d fd0f d0bd 8c1e 32bd
00000240: aa1d 573d 3c9d 113d 9ff2 2c3d 0101 89bc
00000250: 4487 06bd 0f49 00bc a5f4 0a3e f51a 353d
00000260: 55b7 e63c bcdf 853c 43f5 033e 75f8 b6bd
00000270: 4631 87bc abee a03d 7392 4c3d 6926 e53c
00000280: 0470 c73d 49e6 223d 47aa 163e d311 dc3c
00000290: 24f7 d2bd 0d13 a0bd 51a2 083e 927a 05be
000002a0: c31f 933b 4d55 543d 4148 e83d ed73 9a3c
000002b0: e843 97bd ca05 b63c c0d7 1ebd 03b4 60bc
000002c0: 613b fcbc 13cf 3dbc fc6c ae3d 3147 c83c
000002d0: 76e8 243d 20bc d33c 9858 08be 53f5 fcbc
000002e0: fb80 c7bd 0ea1 b7bc 1174 f1bd 5c99 82bc
000002f0: 0ba4 6dbd e172 eabb 8221 c7bd dedd f9bd
00000300: 5e12 063e ab77 523d 9cb4 cabd 74ef c13d
00000310: a60b 15be 0cb1 163d c6ef e6bd d09f 97bd
00000320: b5c0 13bd 32aa b33c 11c6 77bd 6d30 4ebd
00000330: 6bdc 8fbd 5b3d 093d bace dd3d 727f 553c
00000340: 306a b03d 7295 0a3e 893b d13c cc12 06bc
00000350: 0e69 9f3c 4c9b 02be 5429 a63c 11c0 87bd
00000360: 769f e6bc 799e 653c 7348 413d ddfb 96bd
00000370: c495 47bd c3ae 8bba 311b df3d 25f8 a6bc
00000380: 6535 bcbd c1c9 8fbc 99c5 4e3b 4c1d 0abd
00000390: 10e3 bd3d 07f9 c13d 7827 043e 79d2 9a3d
000003a0: fa0a 863c f1a9 50bc 7940 a13d ba7a e83b
000003b0: 1d94 4e3c 198c 143d 3b06 093e bd7b 67bc
000003c0: bbb1 cdbc 4658 f7bc 4f9b 873a a87f f1bd
000003d0: ac24 623d 3b86 f43b 70ee 173d 3b56 7fbd
000003e0: 93f3 8c3c 54bc 47bd ab3f 9fbd da35 ce3d
000003f0: aaa4 b73d 683d fe3d a783 60bd f7ce d93c

rnn.bias_ih_l0 f4 [128]
0.035282776 0.109928876 0.028227497 0.01672028 0.179076 -0.068697155 0.08870277 0.08821577
0.00038720516 0.06880417 -0.065620214 -0.043605693 0.0633356 -0.07003056 -0.0731725 0.07672848
-0.028633134 0.12674314 0.098428115 0.17960857 -0.10244665 -0.0145867085 0.08629073 -0.11334854
0.12839982 0.074022196 -0.025394503 0.013081968 0.15263873 0.045797348 0.12046059 0.0057021813
0.11533789 -0.07975856 -0.07393174 0.017821774 -0.12166913 0.1300955 -0.0109137995 -0.083444834
-0.06269434 -0.105265446 -0.041648228 0.016432555 -0.047878485 -0.08456961 0.16060308 0.002111064
0.11891835 0.16525023 0.06564687 0.069787964 -0.03566804 0.17293909 -0.15653752 -0.03263587
-0.12524037 0.082785666 0.18763272 -0.04135033 0.10219544 -0.05920176 -0.012197089 0.026304098
0.12986878 0.1383979 -0.12434891 -0.04749434 0.06500999 -0.06213125 -0.024021106 0.08394559
0.18203767 -0.12424794 -0.15615448 -0.049995147 0.09652344 0.08461188 -0.050629977 -0.047402855
-0.07753686 -0.13343257 -0.032659452 -0.018430235 -0.051118653 0.0032271915 0.14026512 0.17036669
0.07256249 0.14285865 0.21306483 0.033080637 0.10915361 -0.07295141 -0.20759808 0.045671165
0.13588277 -0.08234415 0.11113289 0.009420049 -0.022625241 0.104399286 0.16298003 -0.072269924
0.023486413 -0.03050807 -0.117125995 -0.06962771 -0.11842268 -0.19356951 -0.06055785 -0.14141674
-0.050170492 -0.046517696 0.0676221 -0.12262532 0.0828885 0.08914191 0.013791463 -0.11206626
-0.11007213 0.1450854 -0.0048081656 -0.060451966 0.088057145 -0.1094743 0.12092984 -0.093108974
00000000: ac84 103d 6422 e13d 5a3d e73c f8f8 883c
00000010: b35f 373e 18b1 8cbd cca9 b53d 78aa b43d
00000020: cc01 cb39 33e9 8c3d e463 86bd e29b 32bd
00000030: 18b6 813d 2f6c 8fbd 77db 95bd d223 9d3d
00000040: 0990 eabc f4c8 013e ae94 c93d 4feb 373e
00000050: 8dcf d1bd 17fd 6ebc 32b9 b03d 4823 e8bd
00000060: 3e7b 033e f398 973d 2208 d0bc c055 563c
00000070: 544d 1c3e 0096 3b3d 0bb4 f63d 5dd9 ba3b
00000080: 4636 ec3d 7558 a3bd 8669 97bd f8fe 913c
00000090: aa2d f9bd c137 053e cbcf 32bc 20e5 aabd
000000a0: e465 80bd 6995 d7bd 5597 2abd 919d 863c
000000b0: 3b1c 44bd d532 adbd 2275 243e c759 0a3b
000000c0: 778b f33d 5b37 293e de71 863d feec 8e3d
000000d0: a718 12bd f216 313e 5f4b 20be 31ad 05bd
000000e0: 033f 00be 888b a93d cb22 403e f75e 29bd
000000f0: d84b d13d 8b7d 72bd 4dd6 47bc b17b d73c
00000100: 52fc 043e 2eb8 0d3e a4aa febd 6d89 42bd
00000110: f523 853d 567d 7ebd e9c7 c4bc aaeb ab3d
00000120: 1568 3a3e b475 febd f6e6 1fbe b6c7 4cbd
00000130: 15ae c53d fe48 ad3d 6161 4fbd 7f29 42bd
00000140: a5cb 9ebd 8ca2 08be ebc5 05bd 01fb 96bc
00000150: cb61 51bd 4a7f 533b a9a1 0f3e 9b74 2e3e
00000160: a59b 943d 8a49 123e ab2d 5a3e 907f 073d
00000170: ee8b df3d 8d67 95bd 9794 54be b011 3b3d
00000180: da24 0b3e 0da4 a8bd a499 e33d 8d56 1a3c
00000190: 9258 b9bc 4bcf d53d 3de4 263e 4102 94bd
000001a0: 9466 c03c 0fec f9bc c1df efbd f998 8ebd
000001b0: 9787 f2bd 1637 46be 820b 78bd 8dcf 10be
000001c0: 937f 4dbd 5789 3ebd 757d 8a3d fc22 fbbd
000001d0: 72c1 a93d 0990 b63d 97f5 613c ff82 e5bd
000001e0: 7f6d e1bd 4491 143e d18d 9dbb 7b9c 77bd
000001f0: 4e57 b43d 1034 e0bd 10aa f73d ebaf bebd

rnn.bias_hh_l0 f4 [128]
0.19226436 0.047004763 0.00833847 0.019943228 -0.07564857 -0.14570133 0.049473315 0.1964656
0.06056492 0.06393899 0.11222836 -0.089058176 0.06896736 -0.13497692 0.1174624 0.012129006
0.06948204 -0.14091796 0.02343068 0.0083449595 -0.007540492 0.06218828 0.086418286 0.10886152
0.09300309 0.049534872 0.062937304 0.02994866 0.16454847 -0.11930576 0.17623638 -0.06579056
0.044090014 0.08917852 -0.118177794 0.010662952 -0.010154532 -0.12510788 0.037049536 0.21040386
0.098378174 -0.100498006 0.00026189804 0.12338251 -0.049016375 -0.07398694 0.047734797 0.011799398
-0.0031955966 -0.0044463254 -0.011081331 0.094313666 0.04093157 -0.13180989 0.020157032 0.1634331
0.015346857 0.060539383 0.033826724 -0.08569421 0.08985352 -0.084917076 0.1354756 0.020916494
0.18336545 -0.043853853 -0.19436489 0.09994371 0.14663152 0.16995132 0.07933588 0.100002274
-0.12208928 0.032173175 -0.058063593 0.0042214277 -0.05765933 -0.0062098606 -0.13325512 -0.034376234
-0.049970757 0.11954235 0.05402791 -0.20728353 0.14008959 -0.1902332 0.082542375 0.030625345
-0.12088679 0.08009675 -0.006156654 0.07661467 -0.1939281 0.18704978 -0.016718326 0.05549609
-0.03323989 0.01847884 0.09082561 -0.0833107 0.14570507 0.1374441 0.17505977 -0.034081366
0.104704745 0.018763758 0.03978909 0.034737848 0.05190846 -0.15245207 -0.012097908 -0.12741932
0.12430839 0.15064773 -0.026882457 -0.048856687 -0.1273511 0.20154834 -0.07339416 -0.040072747
0.123982385 0.03862373 0.21455388 -0.14260574 0.13388135 -0.11204177 -0.039683312 0.11697902
00000000: f3e0 443e 1188 403d 149e 083c fb5f a33c
00000010: a3ed 9abd bb32 15be 88a4 4a3d 472e 493e
00000020: ec12 783d 72f2 823d fbd7 e53d 2264 b6bd
00000030: c23e 8d3d 6437 0abe 2090 f03d bdb8 463c
00000040: 9a4c 8e3d cc4c 10be b3f1 bf3c 4cb9 083c
00000050: 3b16 f7bb 23b9 7e3d 12fc b03d caf2 de3d
00000060: 6778 be3d 14e5 4a3d 46e5 803d e456 f53c
00000070: 657f 283e 9456 f4bd 4f77 343e 33bd 86bd
00000080: bb97 343d 3aa3 b63d 3307 f2bd aab3 2e3c
00000090: 325f 26bc 481c 00be 41c1 173d 1c74 573e
000000a0: 7f7a c93d e6d1 cdbd 5c4f 8939 f8af fc3d
000000b0: 65c5 48bd 7786 97bd 9085 433d 4352 413c
000000c0: 376d 51bb 7bb2 91bb 798e 35bc 8627 c13d
000000d0: dda7 273d 2cf9 06be 5c20 a53c 025b 273e
000000e0: 6271 7b3c 25f8 773d e48d 0a3d 7280 afbd
000000f0: 1f05 b83d 01e9 adbd 1eba 0a3e 1159 ab3c
00000100: 27c4 3b3e 19a0 33bd 9707 47be 4aaf cc3d
00000110: 9326 163e b807 2e3e da7a a23d fecd cc3d
00000120: f209 fabd 05c8 033d 17d4 6dbd e753 8a3b
00000130: 312c 6cbd 167c cbbb 0874 08be 18ce 0cbd
00000140: 23ae 4cbd 9fd2 f43d 5f4c 5d3d 2242 54be
00000150: a573 0f3e 7ecc 42be fa0b a93d 01e2 fa3c
00000160: 7e93 f7bd c409 a43d c2bd c9bb 27e8 9c3d
00000170: 1695 46be fa89 3f3e dff4 88bc de4f 633d
00000180: 8d26 08bd f060 973c c702 ba3d cd9e aabd
00000190: b633 153e 25be 0c3e de42 333e e798 0bbd
000001a0: 716f d63d 74b6 993c e3f9 223d 4649 0e3d
000001b0: f79d 543d 651c 1cbe 4e36 46bc 367a 02be
000001c0: 6695 fe3d 6643 1a3e 9938 dcbc f31d 48bd
000001d0: 5468 02be b062 4e3e ad4f 96bd 5223 24bd
000001e0: 7aea fd3d eb33 1e3d 03b4 5b3e 3d07 12be
000001f0: 3118 093e 2876 e5bd f88a 22bd b292 ef3d

gcn.lin_n.weight f4 [32, 32]
-0.032042503 0.0882823 -0.08944452 0.022679778 -0.030132132 -0.03332559 -0.023849674 0.049579214
-0.0103413705 -0.07850592 0.035862897 -0.007802392 0.041366506 0.083092354 0.070409894 0.043965917
-0.14141648 -0.02420804 0.043634824 0.0654283 0.048410118 -0.11455424 0.075406544 0.0046388637
-0.03255947 0.02833158 -0.049578384 -0.05585132 0.03960565 0.09039904 0.05336727 0.025738161
-0.105561554 0.13763171 -0.20759887 -0.07823043 0.053742144 0.19389127 -0.121332526 0.108072825
0.045487963 -0.09710908 -0.20959556 0.12809317 0.02601453 -0.12187995 -0.029091349 -0.13530447
0.061808642 -0.043999348 0.08298484 -0.18655959 0.18821763 -0.16273414 -0.07022867 -0.039870434
-0.05805385 0.022759901 0.14614642 -0.050027464 0.0006581274 0.009852396 -0.20950055 0.10357191
0.021102445 0.054295063 -0.055988163 0.033558886 0.06306185 0.050386634 -0.02699571 0.033311818
0.08271462 -0.038094204 0.020227313 -0.06423596 0.050682697 0.054770876 -0.051130384 -0.058681253
-0.035248026 -0.041389827 0.038967393 -0.045440342 0.07514349 -0.03876503 0.05817569 0.020866528
-0.047956508 0.009039619 0.047535934 0.042134482 -0.04666571 0.069685236 -0.0378298 0.097020425
-0.08471373 0.1408186 -0.056433536 0.037084248 0.21715209 0.17011729 -0.04042679 -0.047777608
0.09655607 0.052691493 -0.020076446 0.045143142 -0.044714212 0.20778786 0.06633784 -0.20680954
0.08898012 0.015166454 0.118815616 -0.15838234 -0.053447578 -0.020280499 -0.119305424 0.1499584
0.11018804 0.16646947 0.18476124 -0.039683074 -0.1550283 0.12795751 -0.14329308 0.044510823
0.112032086 0.06826195 -0.054712694 0.21794447 -0.083659716 0.05684193 0.020421352 0.18623991
0.06520629 0.0030451338 -0.025800806 -0.16949046 -0.034367632 -0.06748309 -0.10121753 0.08541538
0.031386968 0.063477784 0.07190892 -0.09089125 -0.009418724 -0.16090262 -0.07569965 0.043986704
0.0064510996 0.17937176 0.080800824 0.0204785 -0.020026619 -0.10628808 0.06651705 -0.039857287
-0.006073688 0.0016395284 0.006648912 -0.004346949 -0.0060656145 -0.005866807 0.0060500666 -0.006050288
-0.0014063328 -0.0035032167 0.006025926 -0.0059307297 -0.003907169 -0.008946874 0.009950828 0.0037414646
0.009946662 0.0022891243 -0.0011275962 0.006217904 -0.0025897296 -0.0049817176 0.0012612795 -0.0075514666
0.008432478 -0.0069228173 -0.003137774 -0.004946527 0.00971568 -0.00039754 0.0064620175 -0.0018377391
0.09695648 0.058610898 -0.0064487136 0.059449 0.13427684 -0.065281 -0.01700178 0.15263209
-0.010857358 0.023005439 -0.017792316 -0.15573557 0.11160217 0.12118191 -0.08942204 -0.1299346
-0.15660924 0.12126353 0.056083962 0.025430765 0.14360693 -0.072833814 -0.059670277 0.14578252
-0.1754641 0.059318822 0.1639797 0.0820335 -0.07080438 -0.07358101 -0.060862873 -0.11473069
-0.05100245 0.03608289 0.037625827 0.028006397 -0.047764894 0.0038771033 0.05218957 -0.010252093
-0.0641355 -0.06655187 0.003944078 -0.02883037 -0.05665689 0.007883896 0.07930638 0.07619178
0.06971878 0.08912407 0.020533634 -0.0020202592 -0.092089735 0.07707065 -0.057698082 -0.07547666
0.07068103 -0.06525402 -0.045111958 0.0027907286 0.062519655 -0.027444672 0.042636342 -0.09084771
00000000: 003f 03bd 5acd b43d b02e b7bd f1ca b93c
00000010: a9d7 f6bc 6a80 08bd 6460 c3bc 9313 4b3d
00000020: da6e 29bc b6c7 a0bd f9e4 123d 35ab ffbb
00000030: ed6f 293d 532c aa3d 1033 903d 9b15 343d
00000040: 7bcf 10be f14f c6bc 6eba 323d 46ff 853d
00000050: b049 463d 6a9b eabd bf6e 9a3d 9c01 983b
00000060: 145d 05bd a117 e83c b412 4bbd 5bc4 64bd
00000070: 8939 223d 2223 b93d a397 5a3d d6d8 d23c
00000080: a830 d8bd 54ef 0c3e cc94 54be 4737 a0bd
00000090: b920 5c3d 6f8b 463e 307d f8bd 4955 dd3d
000000a0: 9651 3a3d 20e1 c6bd 38a0 56be db2a 033e
000000b0: 6c1c d53c 329c f9bd fb50 eebc 418d 0abe
000000c0: 0f2b 7d3d a938 34bd f5f3 a93d 7a09 3fbe
000000d0: 1fbc 403e c7a3 26be 0dd4 8fbd 2e4f 23bd
000000e0: e0c9 6dbd f972 ba3c 68a7 153e 99e9 4cbd
000000f0: 2f86 2c3a f26b 213c 5087 56be 821d d43d
00000100: 09df ac3c 8064 5e3d d853 65bd 0b75 093d
00000110: 9226 813d 3762 4e3d 1b26 ddbc f971 083d
00000120: 4866 a93d ab08 1cbd c0b3 a53c 258e 83bd
00000130: a998 4f3d 6d57 603d 186e 51bd c15b 70bd
00000140: 3c60 10bd 6188 29bd 469c 1f3d a71f 3abd
00000150: d5e4 993d 15c8 1ebd a249 6e3d 48f0 aa3c
00000160: 0b6e 44bd e91a 143c 0ab5 423d 3595 2c3d
00000170: 8b24 3fbd 22b7 8e3d 6cf3 1abd a5b2 c63d
00000180: 647e adbd c032 103e da26 67bd a7e5 173d
00000190: 1e5d 5e3e 3a33 2e3e 9096 25bd 74b2 43bd
000001a0: 30bf c53d 09d3 573d 5c77 a4bc 04e8 383d
000001b0: 4026 37bd 57c6 543e 22dc 873d e1c5 53be
000001c0: 363b b63d b87c 783c 9a55 f33d fb2e 22be
000001d0: d9eb 5abd 4a23 a6bc 6756 f4bd b28e 193e
000001e0: 44aa e13d f976 2a3e 0d32 3d3e b88a 22bd
000001f0: bdbf 1ebe 4b07 033e 6cbb 12be fb50 363d
00000200: 1471 e53d eccc 8b3d 6b1a 60bd d62c 5f3e
00000210: c955 abbd 15d3 683d ae4a a73c adb5 3e3e
00000220: e08a 853d de90 473b 365c d3bc e88e 2dbe
00000230: 13c5 0cbd 9334 8abd 234b cfbd 42ee ae3d
00000240: 9f8f 003d a400 823d fc44 933d 3125 babd
00000250: fe50 1abc a8c3 24be 6b08 9bbd 672b 343d
00000260: bf63 d33b 3bad 373e e77a a53d 87c2 a73c
00000270: dd0e a4bc 91ad d9bd 173a 883d 6541 23bd
00000280: ca05 c7bb 72e5 d63a 1edf d93b da70 8ebb
00000290: 10c2 c6bb 583e c0bb a33f c63b 7f41 c6bb
000002a0: b354 b8ba 3996 65bb 2275 c53b 9156 c2bb
000002b0: b607 80bb e995 12bc cc08 233c 5c33 753b
000002c0: 53f7 223c 2205 163b dacb 93ba 8fbf cb3b
000002d0: 74b8 29bb ad3d a3bb 8451 a53a 4b72 f7bb
000002e0: 6028 0a3c cdd8 e2bb 1da3 4dbb 7a16 a2bb
000002f0: 842e 1f3c ea6c d0b9 55bf d33b 4be0 f0ba
00000300: 1e91 c63d fb11 703d bb4f d3bb cb80 733d
00000310: de7f 093e 0cb2 85bd 5147 8bbc 964b 1c3e
00000320: 0fe3 31bc e775 bc3c 31c1 91bc 2579 1fbe
00000330: ae8f e43d 392e f83d e722 b7bd 930d 05be
00000340: 2c5e 20be 0359 f83d 4cb8 653d 2e54 d03c
00000350: b20d 133e e529 95bd d268 74bd 0348 153e
00000360: dcac 33be 4bf8 723d 4bea 273e 2e01 a83d
00000370: e301 91bd a4b1 96bd 594b 79bd edf7 eabd
00000380: f2e7 50bd a7cb 133d 8a1d 1a3d ac6d e53c
00000390: 1fa5 43bd 0017 7e3b bbc4 553d 65f8 27bc
000003a0: 7959 83bd 594c 88bd 533d 813b ab2d ecbc
000003b0: 0e11 68bd 752b 013c 626b a23d 700a 9c3d
000003c0: b8c8 8e3d ae86 b63d 2736 a83c 5366 04bb
000003d0: 8b99 bcbd 38d7 9d3d d354 6cbd 8293 9abd
000003e0: 37c1 903d e6a3 85bd 51c7 38bd a8e4 363b
000003f0: 4e0a 803d a6d3 e0bc 72a3 2e3d 5d0e babd

gcn.lin_n.bias f4 [32]
0.092971295 0.08361569 0.04963776 0.2002968 0.10776828 -0.011354502 0.16779327 -0.002559281
0.17190321 0.13846098 -0.01525095 -0.06722688 0.18000643 0.034649897 -0.027906884 0.057884973
-0.02906543 -0.05300365 -0.005700998 -0.011601489 0.13158557 -0.06706694 -0.0174939 -0.005821214
-0.035117418 0.07369315 0.15693893 -0.013459049 0.1326903 0.10317255 -0.06388289 0.16498832
00000000: bc67 be3d b43e ab3d f750 4b3d 9b1a 4d3e
00000010: 9eb5 dc3d 3c08 3abc 00d2 2b3e 9cb9 27bb
00000020: 6507 303e b7c8 0d3e 1fdf 79bc 3fae 89bd
00000030: 9b53 383e 0ded 0d3d fa9c e4bc cb18 6d3d
00000040: a01a eebc 5b1a 59bd 70cf babb 2c14 3ebc
00000050: 5ebe 063e 645a 89bd 5e4f 8fbc e2bf bebb
00000060: 48d7 0fbd 6fec 963d 99b4 203e 5883 5cbc
00000070: f7df 073e 214c d33d 08d5 82bd b3f2 283e

gcn.lin_r.weight f4 [32, 32]
0.05298104 0.0003791266 0.031213688 0.059744157 0.036559425 -0.02113022 -0.0024075636 0.056886297
0.03149702 -0.008088218 0.031667754 -0.025755448 0.027088739 -0.008752245 -0.091145426 0.037404437
0.022871926 -0.021111714 -0.018986184 0.09958597 0.06775991 0.11242719 0.08237289 0.0019561367
-0.039960276 0.07625682 -0.0149337035 0.013798643 -0.079422995 0.020778494 -0.009321141 0.013992289
-0.06495612 -0.14744858 -0.094211824 0.070870444 0.060292426 -0.07969937 0.041232314 0.17848173
-0.20757438 -0.145441 -0.07705741 -0.009838501 -0.108495034 -0.088247396 0.07968257 -0.11663468
-0.071319684 -0.0814094 0.063204765 -0.0354253 -0.0909587 -0.04580035 -0.1273232 0.021946115
0.09216616 0.114760906 -0.09138245 0.050490778 0.11441154 -0.111841984 0.045218993 0.15809467
0.021521349 0.026077973 -0.0256187 0.022811607 0.03517731 0.043820404 -0.018723153 0.013255769
0.08640732 -0.004970017 -0.018426748 -0.051509842 0.05253979 0.020498583 -0.029039206 -0.037675656
-0.013904841 -0.03246138 0.013893741 -0.021606987 0.04320344 -0.024865296 0.032381907 0.022049595
-0.01935194 0.016813828 -0.005237341 0.022492964 -0.026970588 0.04019574 0.0075603435 0.053988956
-0.13459171 0.045900688 0.043386906 0.06956159 0.1080822 -0.12756275 -0.20809609 -0.13150519
-0.057943095 -0.05948768 -0.14954036 -0.08797962 0.12497572 0.0024924446 -0.10544961 0.07569347
0.06928321 0.04383937 0.110384405 -0.13539119 -0.08069765 -0.029533701 -0.086239755 0.08527818
-0.16320558 0.10255653 0.0036815451 0.020678658 -0.19950995 0.029029066 -0.16906132 -0.00581793
0.08420527 -0.020621305 -0.14686295 -0.12090848 0.17881428 -0.04623576 -0.16197982 0.14258492
0.004991576 -0.0990973 -0.0774865 -0.0007257445 0.044721913 0.15363666 0.026655156 0.03499281
-0.04896561 0.07625593 -0.12677836 0.07821916 0.13270657 -0.1610064 0.21231739 0.15344726
0.12197609 0.069890104 0.20111006 0.14601597 0.069101825 -0.11125914 -0.19692263 0.04253809
-0.0063082636 0.00022863002 0.0061691846 -0.004207262 -0.0047634495 -0.005216806 0.00943027 -0.00732723
-0.00027229823 -0.00067608204 0.002018346 -0.001602042 -0.0044182097 -0.00094743894 0.008167181 0.0030938603
0.0037603455 0.0066267406 -0.0037381477 0.0057738405 -0.0009905196 0.0076799854 -0.008608105 -0.005500362
0.004375796 -0.0058568823 -0.005571978 -0.003414166 0.00725137 9.013338e-05 0.0056432607 -0.00045193182
0.106294595 -0.10400983 0.010332884 0.03664804 0.008362091 0.08420201 0.11114942 -0.10402335
-0.065199316 -0.113043144 -0.17380533 0.090172805 0.030281814 0.1359276 0.07005296 -0.2107622
0.11008569 -0.11002027 -0.057213593 -0.06270821 -0.028649261 0.004071983 0.16447778 -0.07367375
0.08072888 -0.12725219 -0.048637632 0.120207705 -0.1929276 0.089760974 0.0970624 0.08602064
-0.010935354 0.02709737 -0.0016726822 0.002755088 0.0067358403 -0.006238392 0.02390451 -0.004095679
-0.04421648 -0.05848922 0.0052873315 -0.033677217 0.00062677544 -0.017181214 0.015202497 0.07043261
0.06531985 0.019239943 0.023068618 0.0099302605 -0.08106394 0.015885767 -0.007921414 -0.02948454
0.068256274 -0.011866778 -0.008109225 -0.0010209321 0.0022524544 0.019037249 0.01136517 -0.049664117
00000000: a602 593d 83c5 c639 d9b3 ff3c 4ab6 743d
00000010: 56bf 153d 4819 adbc 37c8 1dbb 9b01 693d
00000020: 0503 013d 7284 04bc 0cb6 013d 17fd d2bc
00000030: 34e9 dd3c 9465 0fbc 74aa babd 6535 193d
00000040: e85d bb3c 79f2 acbc ea88 9bbc bbf3 cb3d
00000050: b5c5 8a3d 3a40 e63d 1eb3 a83d 8732 003b
00000060: 63ad 23bd 892c 9c3d 7eac 74bc b413 623c
00000070: 86a8 a2bd a937 aa3c b3b7 18bc ea3f 653c
00000080: b707 85bd c3fc 16be 21f2 c0bd 8624 913d
00000090: 31f5 763d 6c39 a3bd 37e3 283d eac3 363e
000000a0: 618e 54be 7cee 14be 46d0 9dbd aa31 21bc
000000b0: a532 debd 0dbb b4bd 9e30 a33d 2ade eebd
000000c0: 0e10 92bd f9b9 a6bd 8071 813d 1f1a 11bd
000000d0: 8e48 babd 2699 3bbd 0361 02be 57c8 b33c
000000e0: 9dc1 bc3d c407 eb3d b926 bbbd 6bcf 4e3d
000000f0: 9950 ea3d 690d e5bd 8d37 393d 92e3 213e
00000100: 8a4d b03c 79a1 d53c 4fde d1bc 68df ba3c
00000110: 1516 103d 067d 333d 4c61 99bc ba2e 593c
00000120: 52f6 b03d 86db a2bb b1f3 96bc fcfb 52bd
00000130: f633 573d a5ec a73c a1e3 edbc ca51 1abd
00000140: 21d1 63bc 39f6 04bd 93a2 633c 2301 b1bc
00000150: 17f6 303d 4eb2 cbbc e4a2 043d 5aa1 b43c
00000160: f687 9ebc 27bd 893c 009e abbb 2a43 b83c
00000170: 6cf1 dcbc 4aa4 243d c2bc f73b 8623 5d3d
00000180: 69d2 09be 5c02 3c3d 78b6 313d 4f76 8e3d
00000190: 335a dd3d cf9f 02be 2417 55be 4ca9 06be
000001a0: bd55 6dbd 5ba9 73bd 1c21 19be a92e b4bd
000001b0: 45f3 ff3d 4858 233b f7f5 d7bd 2e05 9b3d
000001c0: 5be4 8d3d e990 333d 3811 e23d fda3 0abe
000001d0: cf44 a5bd a9f0 f1bc 789e b0bd 54a6 ae3d
000001e0: 5d1f 27be 2809 d23d 1446 713b 4a66 a93c
000001f0: 564c 4cbe 5dce ed3c 691e 2dbe 56a4 bebb
00000200: d073 ac3d 03ee a8bc 3e63 16be dd9e f7bd
00000210: 171b 373e b561 3dbd 0ade 25be c801 123e
00000220: 6090 a33b 86f3 cabd 3eb1 9ebd e43f 3eba
00000230: 532e 373d ee52 1d3e ea5b da3c 9f54 0f3d
00000240: 2a90 48bd 122c 9c3d 30d2 01be 5e31 a03d
00000250: 3be4 073e ddde 24be bb69 593e 4721 1d3e
00000260: 9ace f93d 8b22 8f3d ccef 4d3e 3685 153e
00000270: 4285 8d3d d5db e3bd 16a6 49be 6c3c 2e3d
00000280: 8db5 cebb 67bc 6f39 df26 ca3b 12dd 89bb
00000290: b616 9cbb bef1 aabb 6b81 1a3c 4319 f0bb
000002a0: 40c3 8eb9 193b 31ba 3a46 043b 9cfb d1ba
000002b0: a1c6 90bb 8d5d 78ba a4cf 053c 5dc2 4a3b
000002c0: 2170 763b 2125 d93b b6fb 74bb 7c32 bd3b
000002d0: 53d4 81ba 63a8 fb3b 0209 0dbc 613c b4bb
000002e0: d662 8f3b 17eb bfbb 2495 b6bb 33c0 5fbb
000002f0: e79c ed3b fd05 bd38 1aeb b83b 43f1 ecb9
00000300: fbb0 d93d 1b03 d5bd 424b 293c 411c 163d
00000310: 2701 093c 1a72 ac3d 4fa2 e33d 320a d5bd
00000320: 3887 85bd 2a83 e7bd 06fa 31be 85ac b83d
00000330: 9111 f83c 9b30 0b3e ed77 8f3d 0cd2 57be
00000340: 9b74 e13d 4f52 e1bd cd58 6abd 296d 80bd
00000350: dbb1 eabc 456e 853b dd6c 283e 43e2 96bd
00000360: 2f55 a53d 664e 02be 4138 47bd 752f f63d
00000370: d08e 45be 9ad4 b73d a7c8 c63d 972b b03d
00000380: 332a 33bc 4efb dd3c e73d dbba b58e 343b
00000390: 53b8 dc3b 6d6b ccbb 64d3 c33c 0c35 86bb
000003a0: 571c 35bd 6492 6fbd 5a41 ad3b 1ff1 09bd
000003b0: 304e 243a 9ebf 8cbc e513 793c f93e 903d
000003c0: 6ac6 853d 169d 9d3c 66fa bc3c 88b2 223c
000003d0: da04 a6bd de22 823c d2c8 01bc 9089 f1bc
000003e0: f2c9 8b3d e06c 42bc 8edc 04bc ccd0 85ba
000003f0: ea9d 133b 01f4 9b3c fa34 3a3c 9a6c 4bbd

gcn.lin_2.weight f4 [32, 32]
-0.01428702 -0.0624643 -0.058882248 -0.07757014 0.15140869 0.0025853575 0.045796987 -0.06494678
0.17633845 0.09013259 0.017568028 0.0009136676 -0.13306141 -0.0517028 0.03910426 -0.09114716
0.014336594 0.07546562 -0.040114675 0.00024489546 0.07854529 -0.043959536 -0.017260086 -0.041704435
0.05723778 0.12569751 0.18633068 -0.051400892 0.12032132 -0.12410655 0.12827918 0.14109819
-0.05531576 -0.09931706 -0.034601834 -0.12280613 -0.15070944 -0.006555027 -0.08535292 0.0035377033
-0.11670403 0.13461481 0.019512955 0.03761408 0.07059287 -0.022821745 0.044966426 -0.09634273
0.015666453 0.11128833 -0.018290166 3.4770263e-05 -0.003598961 0.10154326 -0.021214128 -0.019853087
-0.061564837 0.004794837 -0.09535307 0.015777357 -0.110436104 -0.10296813 -0.18461004 0.014270663
-0.044658843 -0.047046226 0.007745162 0.06601655 0.029045701 -0.009386958 -0.023585925 0.028223457
-0.13840707 -0.034054544 -0.017754808 0.010823922 -0.07769391 -0.07575035 0.018346641 -0.058511186
0.0055704727 0.07748696 0.011000565 7.634962e-05 0.10004285 0.08044543 -0.01730578 -0.00074616907
-0.023318363 -0.024159964 -0.09429287 0.04516278 -0.057104982 0.04325615 -0.16281493 -0.0078022755
-0.11598168 0.08694557 -0.053663053 -0.08135812 0.06615977 -0.011037638 0.08765197 -0.03315883
0.048015054 -0.042419314 0.017297845 0.04599282 0.10264501 -0.01784103 0.082802385 0.0007045979
0.0055186567 0.10648049 -0.027099578 -0.00059667986 -0.14967424 0.11377455 -0.0155464 -0.034719694
-0.0039226064 0.012667211 -0.036635574 0.043089096 -0.034189418 -0.016449189 0.011072583 -0.14732239
-0.15687981 -0.088802755 -0.06063979 -0.17052335 -0.17134054 -0.007181559 -0.09099386 -0.03353166
-0.09646175 -0.0009459643 0.017413603 -0.02141347 -0.16977358 -0.011039395 0.007698661 -0.16073321
0.02294194 -0.04720221 -0.016382748 -0.00015325361 -0.070337445 0.02132951 -0.016138747 -0.034863815
0.057322264 -0.012699075 -0.21316682 -0.08786282 0.056179836 -0.20733239 0.11828282 0.10549921
-0.10611955 0.17276625 -0.052327666 0.014881342 0.15328738 -0.006992008 -0.027997278 -0.04100247
-0.07484546 -0.12609616 0.017346371 0.025746677 0.07948865 -0.022411201 0.058071464 -0.107295215
0.01109306 0.016318701 -0.023495458 -0.00012922099 0.006431124 0.03843708 -0.0134032555 -0.03604556
0.009825811 -0.04856827 -0.08133143 -0.04957051 -0.11496948 -0.09059459 -0.11120258 -0.045946628
-0.1509583 0.11069231 -0.07300284 0.13719921 -0.027346965 0.0051581264 -0.06984326 -0.07260578
-0.021247018 0.035986986 0.01744186 -0.05485204 -0.0029366252 -0.015741378 -0.07001561 -0.088789985
0.0051999185 0.029271109 -0.027194135 0.00028287733 -0.1509048 -0.037925065 -0.011899245 -0.04498538
-0.008316453 0.0422558 0.13747105 0.0013495196 0.0053759944 -0.1442146 0.13400789 0.09691033
0.05252189 -0.083486415 0.060700547 0.15498665 -0.009045842 0.01033698 0.14731973 0.053975094
-0.06962046 -0.07546933 -0.022009427 0.021554075 -0.029137906 0.0105864 0.016029827 0.112962805
-0.045737043 -0.009274605 0.02472968 -5.2328087e-05 0.054386273 -0.027746638 0.008382753 0.007444684
0.22477467 0.08357288 -0.105764315 -0.016835507 -0.040788937 0.22913523 0.010241091 0.13457681
00000000: 1b14 6abc 91da 7fbd 832e 71bd 18dd 9ebd
00000010: e10a 1b3e 1a6f 293b 9f95 3b3d d102 85bd
00000020: 1192 343e 6f97 b83d d3ea 8f3c 3283 6f3a
00000030: 4041 08be 51c6 53bd ca2b 203d 5dab babd
00000040: 09e4 6a3c b88d 9a3d 494f 24bd 5065 8039
00000050: 5adc a03d ea0e 34bd 0665 8dbc 45d2 2abd
00000060: 2a72 6a3d d9b6 003e 78cd 3e3e be89 52bd
00000070: 066b f63d 932b febd 9e5b 033e 0b7c 103e
00000080: c792 62bd be66 cbbd a7ba 0dbd c881 fbbd
00000090: 9353 1abe 8dcb d6bb 83cd aebd d0d8 673b
000000a0: 8602 efbd 77d8 093e a2d9 9f3c 3911 1a3d
000000b0: ff92 903d abf4 babc b72e 383d 564f c5bd
000000c0: ef56 803c 23eb e33d 42d5 95bc 49d6 1138
000000d0: 8cdc 6bbb eaf5 cf3d 40c9 adbc f1a2 a2bc
000000e0: 692b 7cbd 021e 9d3b 7848 c3bd 843f 813c
000000f0: 532c e2bd f4e0 d2bd 6a0a 3dbe 80cf 693c
00000100: 31ec 36bd 8bb3 40bd 21cb fd3b af33 873d
00000110: 40f1 ed3c c1cb 19bc 4537 c1bc e134 e73c
00000120: 95ba 0dbe c77c 0bbd 8872 91bc d256 313c
00000130: fc1d 9fbd 0023 9bbd b24b 963c 6da9 6fbd
00000140: 8388 b63b 7cb1 9e3d b73b 343c e41d a038
00000150: 44e3 cc3d 93c0 a43d dac4 8dbc 8f9a 43ba
00000160: 2706 bfbc 1eeb c5bc 9f1c c1bd 9bfc 383d
00000170: eae6 69bd 5c2d 313d f5b8 26be 3baa ffbb
00000180: ce87 edbd 8510 b23d cacd 5bbd 169f a6bd
00000190: c67e 873d 36d7 34bc e082 b33d 8ed1 07bd
000001a0: 6fab 443d e0bf 2dbd 36b4 8d3c f862 3c3d
000001b0: 8c37 d23d 5a27 92bc 4c94 a93d c4b4 383a
000001c0: d9d5 b43b 7112 da3d efff ddbc 826a 1cba
000001d0: 3444 19be a202 e93d 54b6 7ebc 3d36 0ebd
000001e0: 3589 80bb 228a 4f3c 2f0f 16bd 317e 303d
000001f0: 340a 0cbd 73c0 86bc c769 353c aedb 16be
00000200: 1aa5 20be 38de b5bd 6e61 78bd ac9d 2ebe
00000210: e573 2fbe 4953 ebbb fd5a babd 7e58 09bd
00000220: bd8d c5bd 97fa 77ba f9a6 8e3c 4d6b afbc
00000230: 20d9 2dbe 94de 34bc 0d45 fc3b 3f97 24be
00000240: bcf0 bb3c 1b57 41bd 1d35 86bc b4b2 20b9
00000250: 140d 90bd 39bb ae3c 6835 84bc 5ccd 0ebd
00000260: c0ca 6a3d c80f 50bc 6748 5abe 6cf1 b3bd
00000270: d41c 663d f14e 54be 433e f23d f80f d83d
00000280: 3555 d9bd a3e9 303e 8955 56bd dfd0 733c
00000290: 5ef7 1c3e 371d e5bb 8c5a e5bc 35f2 27bd
000002a0: 9448 99bd 5a1f 01be fa19 8e3c b2ea d23c
000002b0: f2ca a23d b297 b7bc 58dc 6d3d 98bd dbbd
000002c0: aabf 353c ccae 853c 8c79 c0bc 7f7f 07b9
000002d0: 2ebc d23b 3370 1d3d 5499 5bbc 82a4 13bd
000002e0: 70fc 203c 86ef 46bd 1891 a6bd 720a 4bbd
000002f0: 1e75 ebbd a889 b9bd 2ebe e3bd 8832 3cbd
00000300: d094 1abe a6b2 e23d 8382 95bd f37d 0c3e
00000310: be06 e0bc 8005 a93b fc09 8fbd 57b2 94bd
00000320: 3a0e aebc 1767 133d 3be2 8e3c 88ac 60bd
00000330: 6574 40bb 10f4 80bc 5864 8fbd 86d7 b5bd
00000340: 1464 aa3b f7c9 ef3c 3cc6 debc 274f 9439
00000350: ca86 1abe 5057 1bbd 0df5 42bc 9742 38bd
00000360: bb41 08bc 6b14 2d3d 36c5 0c3e 5de2 b03a
00000370: 1c29 b03b feac 13be 5d39 093e ec78 c63d
00000380: 3121 573d edfa aabd 23a1 783d d2b4 1e3e
00000390: 0335 14bc 705c 293c fcda 163e fd14 5d3d
000003a0: 2c95 8ebd aa8f 9abd 1d4d b4bc 2c92 b03c
000003b0: 9eb2 eebc 9472 2d3c fc50 833c 0b59 e73d
000003c0: c456 3bbd 83f4 17bc e695 ca3c db7a 5bb8
000003d0: 24c4 5e3d eb4c e3bc d057 093c 89f2 f33b
000003e0: 552b 663e 4228 ab3d f69a d8bd 9eea 89bc
000003f0: 4d12 27bd 6da2 6a3e 40ca 273c 81ce 093e

gcn.lin_2.bias f4 [32]
0.011121438 -0.040650867 -0.09014308 -0.13137284 -0.14553954 -0.053631935 0.1625057 0.09412467
0.047555584 0.19024467 -0.089277685 -0.1778876 -0.08486298 -0.021992492 -0.03859602 0.05116177
-0.02331578 -0.13846113 -0.02093852 -0.08060879 -0.059811607 -0.039362445 -0.055279654 0.09515114
-0.028766336 -0.024875121 0.024044264 0.09606431 -0.038378406 -0.22511806 -0.19667017 0.20760402
00000000: b136 363c 8681 26bd ef9c b8bd 9a86 06be
00000010: 5108 15be 29ad 5bbd e567 263e 6fc4 c03d
00000020: a5c9 423d 80cf 423e 38d7 b6bd 2b28 36be
00000030: a4cc adbd 9929 b4bc dc16 1ebd 018f 513d
00000040: bc00 bfbc c1c8 0dbe 4287 abbc 3916 a5bd
00000050: 04fd 74bd 843a 21bd eb6c 62bd 9ade c23d
00000060: 61a7 ebbc e9c6 cbbc 7af8 c43c 5dbd c43d
00000070: ad32 1dbd 5985 66be e863 49be 2696 543e

nf.base_dist_mean f4 [55, 1]
-0.59671944 -0.21426219 1.07995 -1.4284968 0.39483908 -0.557563 0.34897944 -2.2014124
-1.8872843 -1.0841371 1.3967973 1.3741779 -0.4253323 0.4808003 -2.3891945 -1.0002702
-2.0070472 0.29509214 0.74332446 -0.8229121 1.2172976 -1.3640137 -1.9396064 1.809808
-1.7650763 0.49025938 1.3848983 0.20572002 1.3235831 0.37118158 2.7512462 -0.29356098
0.7345006 -0.9002255 -0.8369958 -0.4261323 0.23754771 -0.7894087 -1.6900896 -1.7319845
0.65014404 1.2441901 0.067841046 -0.13838933 0.4879591 -0.06534913 0.15489283 1.0182928
0.4824628 0.89034235 1.0299642 0.18431136 -0.8871439 0.39395794 -1.4927613
00000000: 9bc2 18bf 8c67 5bbe cd3b 8a3f fcd8 b6bf
00000010: 5928 ca3e 73bc 0ebf 6fad b23e f1e3 0cc0
00000020: 8892 f1bf 01c5 8abf 41ca b23f 10e5 af3f
00000030: 28c5 d9be 752b f63e 90e8 18c0 db08 80bf
00000040: 7673 00c0 5116 973e 834a 3e3f 5eaa 52bf
00000050: 68d0 9b3f 0098 aebf 0645 f8bf caa7 e73f
00000060: 05ee e1bf 4703 fb3e 5944 b13f 45a8 523e
00000070: 2c6b a93f 830b be3e 6b14 3040 a04d 96be
00000080: 3b08 3c3f 2e75 66bf 5b45 56bf 032e dabe
00000090: b53f 733e b016 4abf db54 d8bf abb1 ddbf
000000a0: d76f 263f 9f41 9f3f 3ff0 8a3d efb5 0dbe
000000b0: c6d5 f93e c4d5 85bd 3a9c 1e3e 6b57 823f
000000c0: 5d05 f73e 7aed 633f ded5 833f 1ebc 3c3e
000000d0: dd1b 63bf dbb4 c93e cd12 bfbf

nf.base_dist_var f4 [55, 1]
1.0 1.0 1.0 1.0 1.0 1.0 1.0 1.0
1.0 1.0 1.0 1.0 1.0 1.0 1.0 1.0
1.0 1.0 1.0 1.0 1.0 1.0 1.0 1.0
1.0 1.0 1.0 1.0 1.0 1.0 1.0 1.0
1.0 1.0 1.0 1.0 1.0 1.0 1.0 1.0
1.0 1.0 1.0 1.0 1.0 1.0 1.0 1.0
1.0 1.0 1.0 1.0 1.0 1.0 1.0
00000000: 0000 803f 0000 803f 0000 803f 0000 803f
00000010: 0000 803f 0000 803f 0000 803f 0000 803f
00000020: 0000 803f 0000 803f 0000 803f 0000 803f
00000030: 0000 803f 0000 803f 0000 803f 0000 803f
00000040: 0000 803f 0000 803f 0000 803f 0000 803f
00000050: 0000 803f 0000 803f 0000 803f 0000 803f
00000060: 0000 803f 0000 803f 0000 803f 0000 803f
00000070: 0000 803f 0000 803f 0000 803f 0000 803f
00000080: 0000 803f 0000 803f 0000 803f 0000 803f
00000090: 0000 803f 0000 803f 0000 803f 0000 803f
000000a0: 0000 803f 0000 803f 0000 803f 0000 803f
000000b0: 0000 803f 0000 803f 0000 803f 0000 803f
000000c0: 0000 803f 0000 803f 0000 803f 0000 803f
000000d0: 0000 803f 0000 803f 0000 803f

nf.net.0.net_input.weight f4 [32, 1]
0.9098476 0.99443036 0.9464043 0.92005354 0.8376462 -0.3041167 -0.26154724 0.8515287
0.9876589 1.0976437 -0.87540865 -0.12499906 -0.7191829 0.7429473 0.76443577 0.2919366
-0.8358917 0.8331673 -0.53857774 -0.55176866 -0.73481387 0.16579042 -0.99603385 0.59721506
1.0826532 -0.62339485 0.6045448 0.5918001 -1.1166414 -0.14771393 -1.0468616 0.19952495
00000000: c6eb 683f fd92 7e3f 8d47 723f a188 6b3f
00000010: fb6f 563f 2fb5 9bbe 85e9 85be c9fd 593f
00000020: 37d7 7c3f 977f 8c3f c81a 60bf 82ff ffbd
00000030: 5f1c 38bf cb31 3e3f 10b2 433f b778 953e
00000040: 00fd 55bf 744a 553f 3be0 09bf b640 0dbf
00000050: c31c 3cbf f7c4 293e 13fc 7ebf 16e3 183f
00000060: 6194 8a3f ce96 1fbf 73c3 1a3f 3680 173f
00000070: 1bee 8ebf 5242 17be 90ff 85bf 4550 4c3e

nf.net.0.net_input.bias f4 [32]
-0.17918243 0.72709274 -0.75437456 0.679129 -0.94882286 -0.41495004 0.5373372 -0.13295287
0.45524934 -0.8081689 0.5833757 -0.0951459 0.5089745 -0.3190434 -0.25009358 0.74112207
0.69126624 0.3194966 -0.8307396 -0.13113059 0.20381875 0.8603158 -0.6685701 0.9753877
0.7449285 0.9163711 0.19519614 0.4789003 -0.66268665 0.6384484 -0.005373702 -0.7207259
00000000: 997b 37be c022 3a3f b11e 41bf 66db 2d3f
00000010: 0ee6 72bf 5574 d4be ee8e 093f cc24 08be
00000020: 7116 e93e 28e4 4ebf 1c58 153f dbdb c2bd
00000030: 274c 023f a859 a3be 440c 80be 2dba 3d3f
00000040: d3f6 303f 0f95 a33e 5aab 54bf 1947 06be
00000050: ddb5 503e a83d 5c3f 6927 2bbf 02b3 793f
00000060: a2b3 3e3f 4c97 6a3f 7fe1 473e 6c32 f53e
00000070: d5a5 29bf 5b71 233f e115 b0bb 7e81 38bf

nf.net.0.net_input.cond_weight f4 [32, 32]
0.06808681 0.14461672 0.15117784 0.10746064 0.1553538 0.13451019 0.13504095 0.06476525
0.12595488 0.06560113 0.12322435 0.05848556 0.15063944 -0.019715013 0.11372207 0.00771077
0.18978299 0.19247428 0.06418333 0.17776203 0.045879673 0.03973707 0.17783979 -0.034967456
0.03836442 0.20457587 0.07776775 0.0025402384 0.12496186 0.19700918 0.06473848 0.017011525
0.14230897 -0.010782059 0.023050653 0.16014385 0.12254395 0.070629224 0.07202214 0.08380102
-0.014436703 0.17536475 0.05843332 0.08550469 0.05323712 0.088095136 0.051514473 0.1369498
0.0502419 0.02638789 0.096288495 0.14190874 0.06245575 0.1693965 0.12998272 0.09321675
0.04579635 0.14847513 0.11596233 0.094794594 0.18887301 0.051457316 0.068986975 0.13900937
0.03465438 0.08746495 0.22808321 0.20724986 0.16170955 0.13183427 0.034114603 -0.0014136799
0.15653177 0.08237236 0.17859621 0.19412269 0.16463391 0.055661388 0.14662448 -0.06147508
0.09481668 0.13969319 0.12557276 0.08006717 0.10521462 0.020071412 0.21600242 -0.027239474
-0.02367091 0.21336384 0.13559604 -0.026161889 0.054138526 0.1504145 0.20559996 -0.02017242
0.09521256 0.028823119 0.18580821 0.118477754 0.088597365 0.13926381 0.11911863 0.050258666
0.08743173 0.056652606 0.17168257 0.18775304 0.1443343 0.08509158 0.07982306 0.10065406
0.083971195 0.031084416 0.10765988 0.13865422 0.049971223 0.075920835 0.15597115 0.10060489
0.057160955 0.14524679 0.035728954 0.08627748 0.111389294 0.1637097 0.07000042 0.087349
-0.019963402 0.07184335 0.07366692 0.18133053 0.11340794 0.14160645 0.07294337 0.15838319
0.033017345 -0.02414272 0.059554465 0.1407998 0.118940294 0.14506081 0.06607876 0.016578583
0.19976026 0.061586015 0.15892802 0.040080104 0.14400734 0.104214534 0.19139224 0.14737883
-0.024495047 0.06366948 0.21524967 0.13483673 0.09074079 0.1279153 0.030080039 0.035481032
0.030175403 0.024909768 -0.025386516 0.09213833 -0.00011937681 0.11365613 0.08243148 0.13852783
0.051780228 0.18956296 0.033367485 -0.036271073 0.023183474 0.14140524 0.13762896 0.14278114
0.094985984 0.07489927 0.016206356 0.028978718 0.055432197 0.16511828 0.12994844 0.054861043
0.108826116 0.00046249843 0.012962159 0.036717582 0.13388158 0.020257372 0.02655421 0.10711149
-0.045380082 0.2119677 0.049124606 0.12252046 0.1594965 0.034421064 -0.023680124 0.085822076
0.12881416 0.04288746 0.1778129 0.1132246 0.05754671 0.011949468 0.14656545 0.032926705
0.071478814 0.100201644 0.10374764 0.044797596 0.22684474 0.056311067 0.19580927 0.07927558
-0.0249171 0.06737767 0.044726264 0.13237049 0.13203059 0.13108674 0.21084864 0.06655079
-2.3326693e-05 0.13742448 0.09588042 0.15778515 0.05860256 0.12692471 -0.020842755 0.10019829
0.066429615 0.070659816 0.09474049 0.032656576 0.12111916 0.1073811 0.12217914 0.05716908
0.125371 0.09513194 0.19398344 0.051570334 0.11774678 0.1093375 0.16114433 0.023739262
-0.020245194 0.076769084 0.022544088 0.17402832 -0.0010488036 0.21135353 0.10217908 0.010272097
00000000: 1971 8b3d 6816 143e 5dce 1a3e 5314 dc3d
00000010: 1115 1f3e 0abd 093e 2d48 0a3e a5a3 843d
00000020: 51fa 003e e359 863d 0c5d fc3d 8e8e 6f3d
00000030: 3a41 1a3e 6181 a1bc 1ee7 e83d a0aa fc3b
00000040: 7956 423e fa17 453e 8d72 833d 4007 363e
00000050: 53ec 3b3d 57c3 223d a21b 363e 093a 0fbd
00000060: 0324 1d3d 567c 513e b344 9f3d 217a 263b
00000070: 01ec ff3d c6bc 493e 9c95 843d c15b 8b3c
00000080: 71b9 113e 3ca7 30bc b9d4 bc3c c0fc 233e
00000090: 53f8 fa3d 0ea6 903d 5880 933d df9f ab3d
000000a0: ec87 6cbc d192 333e c757 6f3d 151d af3d
000000b0: 2b0f 5a3d 396b b43d d700 533d 923c 0c3e
000000c0: 73ca 4d3d 6b2b d83c e732 c53d 8650 113e
000000d0: 9ad1 7f3d 4776 2d3e 311a 053e 6ce8 be3d
000000e0: f494 3b3d dd09 183e a87d ed3d ab23 c23d
000000f0: ed67 413e e8c4 523d 0b49 8d3d 7958 0e3e
00000100: c0f1 0d3d d320 b33d a58e 693e 4f39 543e
00000110: 3097 253e 90ff 063e c1bb 0b3d 3a4b b9ba
00000120: dd49 203e d7b2 a83d ede1 363e 19c8 463e
00000130: cb95 283e 32fd 633d ba24 163e 4bcd 7bbd
00000140: 3f2f c23d bb0b 0f3e 2596 003e 42fa a33d
00000150: c37a d73d cd6c a43c bd2f 5d3e 5125 dfbc
00000160: 7fe9 c1bc 0d7c 5a3e b0d9 0a3e 7551 d6bc
00000170: 5cc0 5d3d 4206 1a3e cc88 523e a240 a5bc
00000180: cdfe c23d 761e ec3c 8244 3e3e 77a4 f23d
00000190: 8972 b53d 2c9b 0e3e 78f4 f33d 08dc 4d3d
000001a0: 680f b33d 900c 683d 8ecd 2f3e 5542 403e
000001b0: 5fcc 133e 7f44 ae3d 467a a33d b723 ce3d
000001c0: 17f9 ab3d bfa4 fe3c c87c dc3d 5ffb 0d3e
000001d0: a0ae 4c3d 627c 9b3d e7b6 1f3e f009 ce3d
000001e0: 9b21 6a3d 93bb 143e 8658 123d 3fb2 b03d
000001f0: 1220 e43d 84a3 273e 615c 8f3d 08e4 b23d
00000200: 4a8a a3bc 9b22 933d afde 963d b6ae 393e
00000210: 6c42 e83d 4801 113e 5563 953d 342f 223e
00000220: 323d 073d f4c6 c5bc 62ef 733d d32d 103e
00000230: f896 f33d d28a 143e 4d54 873d cfcf 873c
00000240: f48d 4c3e 9e41 7c3d 07be 223e 092b 243d
00000250: a976 133e 6e6e d53d 54fc 433e 7aea 163e
00000260: d6a9 c8bc 2565 823d 696a 5c3e a412 0a3e
00000270: 4fd6 b93d 3afc 023e 6a6a f63c 8f54 113d
00000280: 6832 f73c 920f cc3c 62f7 cfbc 05b3 bc3d
00000290: f059 fab8 8cc4 e83d d6d1 a83d 3dda 0d3e
000002a0: 8117 543d cb1c 423e 58ac 083d fa90 14bd
000002b0: 45eb bd3c 89cc 103e 9bee 0c3e 3835 123e
000002c0: 0388 c23d ca64 993d 31c3 843c c764 ed3c
000002d0: df0c 633d c414 293e 3411 053e f9b5 603d
000002e0: 3ae0 de3d 7d7b f239 3c5f 543c 2d65 163d
000002f0: 4118 093e caf2 a53c 3788 d93c 455d db3d
00000300: 77e0 39bd 100e 593e e236 493d 02ec fa3d
00000310: 0d53 233e 1afd 0c3d d2fc c1bc 7cc3 af3d
00000320: dce7 033e c3aa 2f3d 9614 363e 4de2 e73d
00000330: 19b6 6b3d b4c7 433c 4115 163e 27de 063d
00000340: 7c63 923d 8536 cd3d a579 d43d af7d 373d
00000350: fd49 683e 6fa6 663d 3a82 483e 3c5b a23d
00000360: f21e ccbc 4efd 893d e332 373d 218c 073e
00000370: 0733 073e 9a3b 063e b5e8 573e c84b 883d
00000380: b1ad c3b7 01b9 0c3e f45c c43d 6e92 213e
00000390: 3d09 703d 8df8 013e 6dbe aabc c334 cd3d
000003a0: 400c 883d 18b6 903d 4d07 c23d e7c2 053d
000003b0: 520d f83d 9fea db3d 0f39 fa3d 202a 6a3d
000003c0: 4161 003e 89d4 c23d 98a3 463e 6a3b 533d
000003d0: 3925 f13d 57ec df3d 0503 253e d778 c23c
000003e0: 40d9 a5bc 1c39 9d3d 61ae b83c 7b34 323e
000003f0: 0278 89ba 0f6d 583e 4443 d13d 4c4c 283c

nf.net.0.net_input.mask f4 [32, 1]
1.0 1.0 1.0 1.0 1.0 1.0 1.0 1.0
1.0 1.0 1.0 1.0 1.0 1.0 1.0 1.0
1.0 1.0 1.0 1.0 1.0 1.0 1.0 1.0
1.0 1.0 1.0 1.0 1.0 1.0 1.0 1.0
00000000: 0000 803f 0000 803f 0000 803f 0000 803f
00000010: 0000 803f 0000 803f 0000 803f 0000 803f
00000020: 0000 803f 0000 803f 0000 803f 0000 803f
00000030: 0000 803f 0000 803f 0000 803f 0000 803f
00000040: 0000 803f 0000 803f 0000 803f 0000 803f
00000050: 0000 803f 0000 803f 0000 803f 0000 803f
00000060: 0000 803f 0000 803f 0000 803f 0000 803f
00000070: 0000 803f 0000 803f 0000 803f 0000 803f
