checkpoint/PSM/model.pth (torch, 114757 bytes, 37 tensors)

rnn.weight_ih_l0 f4 [128, 1]
00000000: e789 9e3c 2189 67bd f174 a3bd e7f2 363d
00000010: f661 763d edcb b8bd 54e0 24be bcf5 8c3c
00000020: 96e6 71bc a790 6d3c 0a99 c5bd 7886 04be
00000030: 4f9e 23be 8116 f5bc f204 073e 1e7c e7bd
00000040: b725 83bd 48b0 d9bd 6a3c 2ebd f9b0 2fbe
00000050: 8b5f 053e 0feb fc3c f5ee 0bbd 86d1 9cbd
00000060: 9b1e 1b3e 783e ebbd d86a 1f3e fc03 0bbd
00000070: 7a3a 013e 70b9 5c3e ef5f 0fbd fe3c 0abe
00000080: c8b3 2e3a 0b00 4b3e 12cb 49be c139 dcbd
00000090: 5475 24be b8c5 fc3c 078b a33d e8ef 173e
000000a0: a97a 9fbd f2f8 c3bc f442 ae3d 813c 95bd
000000b0: eea3 1bbe 7342 4ebe 987a a43d aad5 aa3a
000000c0: 0252 073d cff0 f0bd bbe2 2d3d df49 d33d
000000d0: cfd0 c2bd 2fec d0bd a3db a53d c1d3 41be
000000e0: 6fff 573d 0406 43b7 53f8 e6bd ac70 9a3d
000000f0: b45c 7f3d 34a3 1f3e 9bd7 493e c064 37be
00000100: d957 b23d 53a8 0e3e 559d 2a3e 8561 d5bb
00000110: 24ad cc3d 5d58 9c3d 29b8 e3bd 9efc 8ebd
00000120: 33b4 403e f930 f4bd caed 57be ff48 033e
00000130: e566 e8bd a490 003e bbc6 78be a917 ddbd
00000140: 29c5 523e 9e4a 46be 3e04 c1bd 5e21 01bd
00000150: 4c22 8cbd 8f50 0c3d a39d 20be 2598 c2bd
00000160: 8a52 2ebe 0eb9 1abe 2555 e8bd 0359 a33d
00000170: b91a e7bc 827a e8bd 1c94 0fbe b575 cabb
00000180: ef5a 78be 860e c63d 7c57 6bbe a057 c53d
00000190: 9619 13be 6440 31bd 471f 983d 9f5c 103e
000001a0: 3cc8 443e 25b4 183e ea32 053e fdc7 803d
000001b0: 9fa2 58be 2d4b 0fbd 9fda d4bd 6b98 c8bb
000001c0: 8141 c23d 92ed c0bd 3608 2bbe a98c b9bc
000001d0: 4e6a 933d 942e 5d3d 6b80 1fbe 569a 1bbe
000001e0: f120 a23d 80c9 b53d f21a 4d3e 11b1 b33d
000001f0: ef7a 43bd 8979 3d3e 0ee3 413d 8ea9 06be
0.019352866 -0.05652726 -0.07981289 0.044665243 0.060152017 -0.09023271 -0.161012 0.017207019
-0.014764449 0.01449982 -0.096483305 -0.12941921 -0.15978359 -0.029917957 0.1318548 -0.1130297
-0.06403678 -0.10629326 -0.042538084 -0.17157353 0.13024728 0.030873803 -0.034163434 -0.07657151
0.15148394 -0.11486524 0.15568101 -0.033939347 0.12619963 0.21555114 -0.0350036 -0.13499829
0.0006664363 0.19824235 -0.19706371 -0.10753203 -0.16060382 0.030855998 0.07985502 0.1483761
-0.077870674 -0.023922417 0.08508864 -0.07286931 -0.15199253 -0.20142536 0.080311954 0.0013033648
0.033037193 -0.117646806 0.042452555 0.10316824 -0.09512483 -0.102012984 0.08098533 -0.18928434
0.052733835 -1.1624306e-05 -0.11277833 0.07541022 0.062344268 0.15589601 0.19711153 -0.17909527
0.08708162 0.13931398 0.1666158 -0.0065118694 0.099939615 0.076340415 -0.1111911 -0.06981777
0.1881874 -0.11923403 -0.21086803 0.12820815 -0.113477506 0.12555176 -0.2429456 -0.107955284
0.20583023 -0.19364402 -0.09424637 -0.031525962 -0.06842479 0.034256514 -0.15685134 -0.095016755
-0.17023674 -0.15109655 -0.11344365 0.07975962 -0.028210985 -0.113514915 -0.14021343 -0.0061785826
-0.24253438 0.09670739 -0.22982591 0.09635854 -0.14365229 -0.0432743 0.07427841 0.14097832
0.19217008 0.1491247 0.13007703 0.06288145 -0.21155785 -0.034983803 -0.10393261 -0.0061216853
0.0948515 -0.09420313 -0.16702351 -0.02265008 0.071980104 0.0539995 -0.15576331 -0.15195593
0.07916439 0.08876324 0.2002981 0.08774007 -0.04772466 0.18503393 0.047335677 -0.13150617

rnn.weight_hh_l0 f4 [128, 32]
00000000: 5653 a83d 832f a03b 1b45 2ebe 90f6 9bbd
00000010: ca78 f33d 1d2e e4bd a8ac ed3d 68ad 13bd
00000020: c10c 553c 3163 c83d 48b4 073e 0c41 91bd
00000030: ad3a 26bd 77c5 edbd e090 043e 6e8d a53d
00000040: 1e12 43bd 76ec 7abd 53f5 fc3d 922f 5dbd
00000050: 1ada 063d 5b72 1bbe 8abc 983d 2f39 613c
00000060: 952a 5dbd b3b6 703d 3fa9 fe3d 5632 92bc
00000070: a5d0 c1bd 0e1d 55ba 953d 693d 9485 e23d
00000080: b651 e4bc b8cc 8e3d 4e7e 05bd d9a1 8abd
00000090: b544 af3d 3d2f 4b3d 031c b73c a42b 923d
000000a0: f17e 053e dc48 053d db37 3fbd 7b0e abbd
000000b0: 24e0 adbc af56 0bbe 1884 813c f80e 853d
000000c0: 88ce ac3d cadd 043d 6acd 5bbc b758 9fbc
000000d0: a517 a1bd f6db 9f3d 5236 aabd d4a0 80bd
000000e0: 0215 093d 0c81 a43d 8e4d 65bd e48a ddbd
000000f0: 69aa 2d3d 71a3 17bd 3526 393d 6e09 0c3c
00000100: c5f7 34bd 108d c9bd 5026 30be f8be b53c
00000110: d6b8 a9bc 4544 95bd cb7c 993d d232 bf39
00000120: 0126 94bc 244a 053e 4ef3 24bd 62f7 f8bd
00000130: eb22 09bb 6b76 0ebe 5db2 b43d ba5e 3d3d
00000140: 11aa 0ebd 6f61 a4bd b67c bb3d fde6 1b3e
00000150: 38d1 13bc 39f2 b3bd 95b9 063e a172 c13d
00000160: a5b3 333d 4c64 9b3d 9a6b 34bd 0c16 083d
00000170: 1170 483d 683d ce3d 6722 a63c a808 a73d
00000180: af73 13be a1e8 033d b33e 853c ea2e ccbc
00000190: e6b7 d23d 49ca f9bc 35cf 0d3d a695 e0ba
000001a0: da89 12bd 6511 3c3d 0c39 47bd ca74 c23b
000001b0: 6c10 9e3d 762a 213d dc15 bfba af8f 23bd
000001c0: 9da8 63bd 4f52 a4bb 8762 9f3d 93a6 723d
000001d0: 832f 90bd 40da fabb 574c 643b f2ae 9f3c
000001e0: cbeb 42bc f9a9 c93d 9e88 c1bc 2b74 30bd
000001f0: fc2a 253d fd03 2ebd 190c a63d 4b8a ba3c
00000200: a34c 38bd d23a d0bd 7bc2 cfbd 81fa 7d3d
00000210: 6bf9 e73c 4a68 9dbd d533 b03b 5a1a fb3c
00000220: affe a1bd 848d 7d3d 2210 26bd a7b4 09be
00000230: c6e2 e8bc eb03 17be 2fa9 3f3c 3bd0 1b3d
00000240: 0404 21bd e3b4 313d 0132 0bbd 2e46 12bb
00000250: 6c82 59bd 9f7e 0b3d 864c d03d f77e 83bd
00000260: 6a57 6cbc 302d 30bc 687b 353d ad2c 2a3d
00000270: 7141 8ebd 63b4 843d ae6b 9abd 893f 82bd
00000280: cc93 803d 9f3a 2f3d 62e1 133d 1b61 3ebd
00000290: 1614 1a3e 0522 5f3d 5bac e53c 80cf 16bd
000002a0: a8aa 8abc fd9f c4bc 96c1 d23a f839 56bb
000002b0: 6845 f73d 712b 28bd 2a42 af3d efb8 6d3c
000002c0: 3705 3b3c 13e4 11be 34a2 fa3d 40d6 aabd
000002d0: f47e 993d 8218 93bc 49e3 9e3d 2356 3d3d
000002e0: 223b 833b a1e5 fe3d cc14 df3c 2e7e e93c
000002f0: 7eb7 813c aa4c 0dbe 07ee 59bd c3e3 103c
00000300: b2c2 b3bd 3e20 73bd 68ce 95bc e4f0 a5bc
00000310: a8e3 7c3d 68e0 053e c946 81bd fbc5 2b3d
00000320: be84 0bbd 9b8d f2bd 9da8 233d e77c 943d
00000330: 503a 1b3a 67c3 58bc b702 d13d ed8a 0e3d
00000340: 2295 233c f7c8 12be d336 9e3d 4704 923c
00000350: 2b27 ecbc 293a 72ba 8e54 babd 86e0 febc
00000360: 0f1f 89bd c75a dfbc 7e63 823c d36b 28bd
00000370: 1958 a6bd 0e1a 363d 243c febc 249d 433d
00000380: 1d51 8abd ee5c 503d 9233 f13b 6937 27bc
00000390: c656 8a3d 604b 1dbd 008a 583b 0807 07bc
000003a0: 8c42 78bd 0e14 ba3d ec80 c1bd 3ac2 023c
000003b0: 00d5 84bb 8c52 85bd 4f53 263b 9d26 353d
000003c0: 7e7e 573d ed57 b6bd 997a 23bd 4a8b ad3b
000003d0: 9939 b5bd 016a 923c 8034 0ebc 8022 213d
000003e0: 8ab1 2bbc cf4a 2ebd 3e3d 993d 108c e73c
000003f0: 9a6d 48bc 8c4f 29bd ad47 4fbc a525 cbbb
0.0821902 0.0048884763 -0.17018549 -0.076153874 0.11888273 -0.11141608 0.11605197 -0.036054045
0.013003529 0.09784544 0.13252366 -0.07092485 -0.0405833 -0.11609929 0.1294589 0.08083616
-0.0476247 -0.061260663 0.123514794 -0.054000445 0.03292284 -0.15180342 0.07457836 0.013746544
-0.053995688 0.058767986 0.12434625 -0.017846268 -0.09463624 -0.00081296347 0.056943495 0.11060634
-0.027870994 0.06972641 -0.032591157 -0.06769151 0.08558027 0.049605597 0.022352224 0.0713723
0.13036706 0.032540187 -0.046684127 -0.08352371 -0.021225043 -0.13607286 0.015810058 0.06496996
0.0843783 0.032438077 -0.013415674 -0.019451482 -0.07865838 0.07805626 -0.08311142 -0.062806755
0.0334673 0.08032426 -0.055982165 -0.10817507 0.042398844 -0.037021104 0.045202453 0.00854717
-0.044181604 -0.09841359 -0.17202115 0.022185788 -0.02071802 -0.07288412 0.074945055 0.00036468223
-0.018084528 0.13016564 -0.040271096 -0.121565595 -0.0020925354 -0.1391236 0.088230826 0.046232916
-0.034830157 -0.080263965 0.09154646 0.15224834 -0.00902205 -0.08786435 0.13156731 0.09445692
0.043872494 0.075874895 -0.04404793 0.03322415 0.048935 0.10070306 0.020280076 0.08155948
-0.14399599 0.032204274 0.016265249 -0.024924714 0.10288982 -0.030491965 0.034621436 -0.0017134442
-0.035775997 0.045915026 -0.04863839 0.0059343325 0.07717976 0.039347135 -0.0014578658 -0.03993195
-0.055580724 -0.0050146948 0.077824645 0.05924089 -0.07040312 -0.007655412 0.003483554 0.0194926
-0.011897038 0.09846873 -0.023624714 -0.043079536 0.040324196 -0.042484272 0.08107776 0.022771021
-0.04499496 -0.10167469 -0.10144516 0.062006477 0.028317174 -0.07685907 0.0053772726 0.030652214
-0.07909905 0.061902538 -0.04054273 -0.1344782 -0.028428447 -0.14747588 0.011698051 0.03804038
-0.03931047 0.043385398 -0.033983234 -0.0022319662 -0.053102896 0.034056302 0.10170846 -0.06420701
-0.014425138 -0.010752961 0.044307142 0.041546512 -0.06946076 0.064797185 -0.075400695 -0.063597746
0.0627819 0.042780515 0.036103614 -0.046479326 0.15046725 0.054475803 0.028036287 -0.03681898
-0.016927078 -0.02400207 0.0016079422 -0.003268836 0.12073785 -0.041057054 0.08557542 0.014509424
0.011414818 -0.1424716 0.12237969 -0.08341646 0.074949175 -0.017956022 0.07758195 0.046224725
0.004004852 0.12446142 0.027231596 0.02850255 0.015834566 -0.13798776 -0.053205516 0.008843365
-0.087773696 -0.05935692 -0.018286899 -0.020256467 0.061740547 0.13073885 -0.06312329 0.041936856
-0.03406214 -0.11843415 0.039955724 0.07250386 0.000592147 -0.013230181 0.10205596 0.03480046
0.0099842865 -0.14334475 0.07725301 0.017824305 -0.02882727 -0.0009240234 -0.09098159 -0.03111292
-0.06695377 -0.027264966 0.015916582 -0.041118454 -0.08122272 0.04445844 -0.031034537 0.047757283
-0.067537524 0.050869875 0.007360884 -0.010206082 0.06754832 -0.03840196 0.0033041239 -0.0082414225
-0.06061034 0.090858564 -0.09448418 0.0079808775 -0.004053712 -0.06509885 0.0025379246 0.044226278
0.052610867 -0.08903489 -0.03991184 0.0052961456 -0.088488765 0.017872812 -0.008679509 0.039339542
-0.01047934 -0.04255181 0.07482384 0.02826503 -0.012233162 -0.041335627 -0.012651366 -0.006199556

rnn.bias_ih_l0 f4 [128]
00000000: 367c e23b 05ca 8abd 6bf3 983d b96a 1dbd
00000010: 753c 49bc bb8a a7bd 27f2 223d 4141 a8bd
00000020: 9c6f d6bd cf4b 613d 8bda 273e d2eb 25be
00000030: fca4 80bd ca86 2bbe 4745 93bc 7b72 8cbd
00000040: 1712 fcbd 3c38 edbd 63ef 403e 6eeb a3bd
00000050: 5fd5 a1bd d9af eabd 25b9 1c3e 2a4d fabd
00000060: 5fd5 053e c8cf 03be 00d3 e23d 3ab6 7bbd
00000070: f780 d23d 034c 32bd 0dab adbb bd58 9f3d
00000080: 012e ed3c 8d65 bdbd f176 26be d16a bf3d
00000090: bce0 1abe b580 06bd 3c93 8d3d 51de 453d
000000a0: efd5 3dbd cf7b 3f3d a989 2e3e efb4 0fbe
000000b0: fb13 28be df5b 0bbe 2a6c 4ebd b142 91bd
000000c0: 6b92 293e 0c05 16bd 25c9 a83d a4a8 043e
000000d0: 7231 223e f0c8 5f3d fc56 e2bd 8738 5c3b
000000e0: 364f cbbd 98ca e4bd ebe5 e7bd cca3 d8bd
000000f0: e3bf e13d 6660 fa3d 9cd5 02be ccae ac3d
00000100: 57d6 373e 8ddd 843d 1d61 c0ba a895 d1bd
00000110: c732 11bd 3e77 2ebe ce2a 47bc 6ada 933c
00000120: 2ab6 6abd 2822 2fbd 0700 033e 3147 d13d
00000130: c3e8 5f3d f689 1c3e b08c c1bc 4572 4ebd
00000140: 4ea9 9abd f83f 0d3e 7284 08be b392 fabd
00000150: 8c21 283e d162 a33a 32fe d6bd 4423 bbbd
00000160: db51 963d 8f60 063d b2f1 bfbd c581 a93d
00000170: bae7 23be 3a26 a33a 5a8f 223e 8d94 afbd
00000180: 4c25 d8bd 2288 be3d 36fd 823c 6f73 18be
00000190: 416c 33be 65b9 e2bd 3dec ac3d ac00 ca3c
000001a0: 8020 fbbd 2398 183e 033c 023d c274 b5bd
000001b0: 5bd4 e1bd cae5 b03d 5272 cbbd e47f 9e3d
000001c0: 0128 c3bd 5b30 9d3d 1cd1 043d 0aea 863d
000001d0: 9bad c93d 2a94 3d3c ed76 42bd 6d6f 90bc
000001e0: dd03 e2bd d938 713b d9f3 1d3e 2afe b4bd
000001f0: 5f0c 98bd db42 5e3d 8348 833d 74bf 433c
0.0069117798 -0.067768134 0.07468303 -0.038431857 -0.0122824805 -0.081807576 0.039781716 -0.08215571
-0.104705065 0.055003937 0.16391961 -0.1620324 -0.06281468 -0.16750637 -0.01797737 -0.06857773
-0.12308138 -0.115829915 0.18841319 -0.08003889 -0.079020254 -0.114593215 0.15305002 -0.12221749
0.13069676 -0.12872231 0.11075401 -0.06145308 0.10278504 -0.04352952 -0.005299932 0.07780597
0.0289526 -0.09247885 -0.1625631 0.093465455 -0.15124792 -0.03283759 0.06912848 0.04830772
-0.0463466 0.046748932 0.170447 -0.14033864 -0.16413872 -0.13609265 -0.050396122 -0.070927985
0.1655976 -0.036625907 0.0824149 0.12954956 0.15839174 0.05463499 -0.11051747 0.003360303
-0.09927218 -0.11171454 -0.1132315 -0.10578117 0.110229276 0.12225418 -0.12776798 0.08431777
0.17952858 0.0648757 -0.001467738 -0.10233623 -0.035448816 -0.17037675 -0.0121562015 0.018048484
-0.05730263 -0.042757183 0.12792979 0.10218657 0.05466534 0.15287003 -0.023626655 -0.050401945
-0.075518236 0.13793933 -0.13331774 -0.12235012 0.16419047 0.0012465363 -0.10497703 -0.09137586
0.073398314 0.03280693 -0.093722716 0.08276705 -0.16006365 0.0012447305 0.15874997 -0.08573256
-0.10553989 0.09303309 0.015989881 -0.14887784 -0.17521764 -0.110705175 0.084434964 0.024658523
-0.12262058 0.14901786 0.031795513 -0.088601604 -0.11026832 0.08637579 -0.09933914 0.07739237
-0.095291145 0.07675239 0.032425985 0.06587608 0.09847566 0.01157097 -0.047476698 -0.017631257
-0.11035893 0.0036807565 0.15425052 -0.088375404 -0.074242346 0.054262977 0.06410315 0.011947501

rnn.bias_hh_l0 f4 [128]
00000000: 874f 863d 02e3 883d 8fe3 b43d cc92 5cbd
00000010: 83f3 98bc e249 83bd d3a4 12be a55e ae3d
00000020: 99af 263e d862 8f3d 5626 183e 0797 c83b
00000030: f629 26be 4508 03be 19d0 5a3e b723 c93d
00000040: 3c3f 29bd 1a24 1d3e f93f e3bd 4c24 d13d
00000050: 6d8d e7bd 1db2 0cbe 431b 113e d1f3 0abe
00000060: cda4 c13c baa6 253d 4941 5fbd 16ca 5e3d
00000070: 8495 6b3c 1e76 c03d b29c c1bd 2c91 0c3b
00000080: 3541 85bd ec91 413c 7352 7d3d ce4a d4bd
00000090: 471b 123e 1e26 f23d 9caf 3abe 2c02 3e3d
000000a0: 3081 fabc 7a98 fbbd feb3 b93d e5b4 223d
000000b0: d46a e13d 1f4b 3cbe 17a0 443c 6644 8e3d
000000c0: d8c4 65bd 1115 7abd cb13 bb3c 35ed de3d
000000d0: 50fe edbd 42fa c2bd 1f83 dc3c ca6b 00be
000000e0: 4c2c 47bd 8c73 c1bc f851 b3bd 23cd 753c
000000f0: 5e69 0ebe a968 dabd ee44 f23d 9377 0bbe
00000100: 3246 65bc 77e7 df39 9181 b23c d275 143e
00000110: b7a1 f03c 2764 c7bc 68c2 4a3d 61c0 e33c
00000120: 7670 263c 4d4a 273c 8f38 bb3d 473e b6bd
00000130: 2473 febd 803e 063e 2129 6dbd edb0 463d
00000140: bddb 69bd cded d53d 45e7 47be ac24 aebc
00000150: 3ff3 443e f12e f13d 25e5 84bc 2f9d 32be
00000160: f1a7 04bd d622 abbd 31a1 da3d 8137 cebd
00000170: db9a 203d 06da ab3d 7427 3c3d 4b86 133d
00000180: a750 053d 8af7 1ebe f3fb 083e fced a1bd
00000190: 59cb a83b 3c25 5a3d 5bcb b73d af88 1ebe
000001a0: 6acf ce3d e7ac 353d f449 cdbd cbce 4fbd
000001b0: 5161 eabd 1dc6 16be 7ebc 1d3d d181 cb3d
000001c0: e1f9 0f3e 0dc9 293e fbbd 963d d24e cdbd
000001d0: ba9b e2bd ef14 d0bc 509e 32be a050 cdbc
000001e0: 04ee cebd bd29 91bd 042d d8bd e7ab 80bd
000001f0: 9348 06be 9c5d 81bc cc61 32be 414c bcbd
0.065581374 0.06683923 0.08832466 -0.053850934 -0.018670803 -0.064105764 -0.14320688 0.08514146
0.16277923 0.07001275 0.14858374 0.0061215195 -0.16226944 -0.12796123 0.21368445 0.09821265
-0.04132007 0.15345803 -0.11096186 0.10212001 -0.11306272 -0.1373982 0.14170556 -0.13569571
0.023638153 0.040442206 -0.05450562 0.054391943 0.014378909 0.09397529 -0.094537154 0.0021448834
-0.06506578 0.011814576 0.061846208 -0.1036583 0.14268218 0.118236765 -0.18231052 0.04638879
-0.03057918 -0.12284942 0.09067534 0.039723296 0.11006704 -0.18388031 0.012001059 0.0694664
-0.056095928 -0.061055247 0.022836586 0.108850874 -0.11620772 -0.09520389 0.026917992 -0.12541118
-0.04862623 -0.023614667 -0.08755869 0.015002522 -0.13907382 -0.106644936 0.118295535 -0.13619833
-0.013993787 0.0004270633 0.021790298 0.1449807 0.029373987 -0.024339749 0.049501806 0.027801694
0.010158649 0.010210586 0.09141647 -0.08898597 -0.12424305 0.1310978 -0.05790055 0.048508573
-0.057094324 0.104457475 -0.19521816 -0.02125772 0.19233416 0.117765315 -0.016222546 -0.17442773
-0.032386724 -0.08356254 0.10675276 -0.1006918 0.03921018 0.08391194 0.045936063 0.036016744
0.03254762 -0.15524116 0.13377361 -0.0790672 0.005151194 0.053258166 0.08974334 -0.15481828
0.10098155 0.044354346 -0.10023871 -0.050734323 -0.11444343 -0.14724012 0.03850984 0.0993687
0.14060165 0.16580601 0.07360455 -0.100247994 -0.11064859 -0.025400607 -0.17443204 -0.025062859
-0.10103992 -0.07088039 -0.10555461 -0.06282788 -0.13113622 -0.015791707 -0.17420119 -0.09194232

gcn.lin_n.weight f4 [32, 32]
00000000: 41d6 f03b be32 ad39 a27e 4c3d 4a0a 17bb
00000010: 14dc 39bd b3ff adbd 63f9 83bd bdb3 c0bc
00000020: 978c be3d bb83 8f3d fdf5 09be 67b2 c73d
00000030: ac45 1f3d 1ec6 24be 5851 973d f9f6 a23c
00000040: e8b3 59bd dfc5 aa3d d425 fa3d c2d5 a23d
00000050: 489c fbbc 5d5f 5d3b f8a4 b03d 3e99 06be
00000060: 21a3 293d 7ef0 ca3c 8902 ec3c d06f d53d
00000070: 1bd6 2abd 7760 25bb 6e82 7c3d d6b9 b83c
00000080: 582c e4bd f1be 6bbd a3f7 25bb 24b6 743d
00000090: 9658 a93d 726a 35ba 3df4 333d 6076 653d
000000a0: 4cd9 95bd 81c0 8d3d a4ec 3dbe 1008 5ebd
000000b0: 200d 2e3e e855 a9bc 2fb8 9f3d ebb9 1f3e
000000c0: 9ae1 01bc b3be 7f3c b75a 603e 55fe 813d
000000d0: 55d3 803c 8a3c a1bc a314 9c3c b3df 843e
000000e0: 1d53 d7bd 2314 24bd 25d3 a3bd fa36 c5ba
000000f0: 4e7b 2f3e 295b 5cbd 56bb 9bbd 29b0 acbb
00000100: f164 5ebe adf0 0a3d 077a 99bd 67fd be3d
00000110: 77ed 25be b065 c9bd a988 d2bd bb10 0abd
00000120: 8f23 08be 0a53 f6bd b0b7 d0bc 873d 6e3d
00000130: d8a0 183e a7de 2ebe e74c 103e 7ad5 aa3d
00000140: a5cd cf3d 99a6 e53d 3a47 593d 0460 b63d
00000150: fb11 76bd 9839 b9bd d0f1 313e b5d7 f13d
00000160: bbe2 47bd 2c8c 99ba 241a f23d 89ce af3c
00000170: 889b cc3d ef77 373c c885 5abc 4ce4 8bbd
00000180: b60f 103d 4af2 413c 59f0 393d cd85 ed3c
00000190: d6f9 51bd 6db0 ffbc 226e afbc 573a f8bb
000001a0: dc7c 483c 1a4c b5bc a71c f83c d321 c43c
000001b0: 7dc7 bbbd bca5 ddba c04d e1bc b8a0 68bd
000001c0: 0348 c5bc 6ef6 a63c e1d2 03bd ed06 eebc
000001d0: 3cfc 093d ee3d 15bc 6cca 8fbd 3447 fbbc
000001e0: 7404 12bd 6816 92bc b1c6 70bd fbcc 8e3d
000001f0: 5975 0fbd 9113 bd3c c9a7 8d3c ce8a 80bc
00000200: 8852 223d 8277 e93d cdb4 823c 5135 6fbc
00000210: 6094 e0bc 78e3 69bd deb5 cb3d 92a8 453e
00000220: 9732 bdbd 2d0d c33c c5b6 f23d 7b80 153d
00000230: 9807 1f3e 902c c33d 1605 463c 3f7c a13c
00000240: 6ced 5dbd 9370 85bd 469a 63bd 9b57 bcbd
00000250: 8681 013e 9b37 f4bd 0708 a3bd 9688 0fbe
00000260: e585 193e eebb afbd d35f 0abe 16a1 4a3c
00000270: 1e3a 1fbe f3c5 163e 40dd 0d3e 4917 da3d
00000280: 4446 18bd 9e88 56ba 3643 cd3c d09e 4abc
00000290: 2edf a23c 8ae8 883c ad89 663a 5c60 8d3c
000002a0: 0f7b 4ebb 7083 bebc bf90 84bc 7ed9 ceba
000002b0: b7b4 81bb 5c39 8fbb 1a1d 0b3b 64c9 c739
000002c0: 9e44 01ba e4f5 babc 70fd b03b bbd1 1e3c
000002d0: fbe9 4c3c de7b 78bd 3d01 d339 9730 c93c
000002e0: cf1e d13c 699e 2e3b 9b76 603b 4788 3cbd
000002f0: 4052 2c3b dbd5 32bb 8a35 96bc 6a2d 87bb
00000300: 91e9 08be 6549 323c 54b5 d53d af34 afbd
00000310: 3637 323d 48cb 2e3e 9cef 453d 18de a63c
00000320: 3414 f2bc b68c 08be b4cb afbd 957c 04be
00000330: f4aa d93c 0eda 23ba e73d 08be 69ef 5c3d
00000340: 2e39 a53c abdc d7bd 2151 a33c 2c87 35bd
00000350: 94df af3d f0e4 77bd 717d 26be 44cc df3d
00000360: 0547 093e cdf8 00be e8ab 07be 1a3c 093e
00000370: a681 abbd 7d6f 3d3e d161 f9bd 8fdb 4c3c
00000380: 3c1f 42bd 21cf 25bd 17bf df3d bb00 5abd
00000390: b205 13be 9bef da3c f258 223d 1455 85bd
000003a0: 2d0f e83d b7ac 163e aa98 ab3d 4d61 19be
000003b0: b90c 75bd 4406 b43d a2ff 30bd 4100 9dbd
000003c0: b81d 02be e332 c9bd 2020 18be 8a3e 093e
000003d0: b86d 323e cca7 10bd 70f0 b53d 3fc8 1dbe
000003e0: c8b4 fbba 7aa4 c6bd 95f3 043d b2c5 b53d
000003f0: 8cec 823d 9829 f63c 8b2d 203e 2f5e e03c
0.00734976 0.00033034937 0.049925454 -0.0023046904 -0.0453759 -0.084960364 -0.06444051 -0.023523206
0.09304159 0.070075475 -0.13472743 0.097508244 0.038884804 -0.160912 0.07388562 0.019893156
-0.053150088 0.08338522 0.122142464 0.07950927 -0.03071417 0.0033778765 0.08625215 -0.13144395
0.041415337 0.024772879 0.028809803 0.10421717 -0.041708093 -0.00252345 0.061647825 0.022549551
-0.111412704 -0.057555143 -0.0025324605 0.059744015 0.082688496 -0.00069204636 0.043934096 0.056021094
-0.07316837 0.06921483 -0.18547302 -0.054206908 0.16997194 -0.020670846 0.07798802 0.15598266
-0.007927323 0.015609431 0.21909605 0.06347338 0.015725771 -0.019682188 0.01905281 0.2595192
-0.105138995 -0.040058266 -0.07999257 -0.0015046292 0.17136881 -0.053797875 -0.07604091 -0.0052700234
-0.21718194 0.033920933 -0.07493978 0.093256764 -0.16203867 -0.098338485 -0.10279972 -0.03370736
-0.13294815 -0.12027557 -0.025478214 0.058164146 0.14905107 -0.17077123 0.14091836 0.08341499
0.101466455 0.112134166 0.053046443 0.08905032 -0.06007574 -0.09044188 0.173774 0.11808721
-0.04880021 -0.0011714748 0.11821392 0.021460788 0.09990603 0.011198028 -0.01333756 -0.068306535
0.035171233 0.011837551 0.04539523 0.028994465 -0.051263653 -0.031212056 -0.02141482 -0.007575314
0.0122368 -0.022131015 0.0302871 0.02394191 -0.09168909 -0.0016910355 -0.027502894 -0.0567939
-0.02408219 0.020381179 -0.03218353 -0.029056037 0.033687815 -0.0091090035 -0.07021031 -0.0306736
-0.035648778 -0.01783295 -0.058783237 0.06972691 -0.03502402 0.023080619 0.01729192 -0.015691187
0.03962949 0.113997474 0.015955353 -0.014600114 -0.0274145 -0.057101697 0.09946798 0.19302586
-0.09238165 0.023809994 0.11851267 0.03649948 0.1553024 0.09529984 0.0120861735 0.019712565
-0.0541815 -0.065156125 -0.05556705 -0.09196397 0.12647066 -0.119246684 -0.079605155 -0.14016947
0.14992483 -0.085807666 -0.13513117 0.012367507 -0.15549514 0.14723949 0.13853931 0.106489725
-0.037176386 -0.00081838097 0.025056463 -0.012366965 0.019881811 0.016712446 0.0008794319 0.017257862
-0.0031506454 -0.023256034 -0.016182302 -0.001578137 -0.0039583105 -0.0043708514 0.0021227063 0.00038106286
-0.0004931184 -0.022822328 0.005401306 0.009693558 0.012506957 -0.060665004 0.0004024598 0.024559302
0.025527386 0.0026644713 0.0034250382 -0.0460284 0.0026294142 -0.0027288112 -0.018336076 -0.004125287
-0.13370349 0.010881756 0.10434976 -0.085549705 0.043509685 0.17069733 0.048324212 0.020369574
-0.02955065 -0.13334927 -0.08583775 -0.1293815 0.026570775 -0.0006250449 -0.13304864 0.053939257
0.020168867 -0.10540136 0.019936146 -0.044318363 0.08587566 -0.060521066 -0.1625879 0.109276325
0.13405998 -0.1259491 -0.13249171 0.13401833 -0.08374338 0.1849956 -0.1217686 0.012503519
-0.04739307 -0.040480737 0.10925119 -0.053223353 -0.14357641 0.02672558 0.039635606 -0.06510368
0.113310196 0.14714323 0.08378728 -0.14978524 -0.059826586 0.087902576 -0.04321254 -0.07666064
-0.1270665 -0.09824159 -0.14856005 0.13402763 0.17424667 -0.035316274 0.088837504 -0.15408419
-0.0019203657 -0.0969934 0.03245886 0.08875598 0.06392774 0.03004913 0.15642373 0.02738866

gcn.lin_n.bias f4 [32]
00000000: 0b05 4c3d 2c9c 4cbd b2be f2bc 1b82 e93c
00000010: 2e5c 4a3e 260b 8ebc cfae 43bc 48ee 3f3e
00000020: 7811 c7bd 5542 7bbd 2969 51bd 431f 07be
00000030: b90f aabc da10 93bb 3d52 89bc d7eb 0d3e
00000040: 27d3 113d 8deb 3c3e 01af ce3d 9c6e 60bc
00000050: b68d 7ebd 056d 81bd 2bf4 033e 6019 cebc
00000060: 90dd 84bd b7ba 9c3d 32a5 9b3d cd71 313e
00000070: a7ee b93d 41be b03d 4f05 bebc 3af1 00be
0.049809497 -0.049953625 -0.029631946 0.028504422 0.19761726 -0.0173393 -0.011943533 0.18743241
-0.09720129 -0.061342556 -0.05112568 -0.13195519 -0.02075945 -0.004488093 -0.016762847 0.13859497
0.03560176 0.1844923 0.10091973 -0.013698246 -0.062146865 -0.06319622 0.12886111 -0.025158584
-0.06487572 0.076528005 0.07599868 0.17328568 0.090787224 0.08630038 -0.02319589 -0.1259202

gcn.lin_r.weight f4 [32, 32]
00000000: 07d8 8cbd 8906 073e f2bf b6bd 71b4 6dbd
00000010: d7ab a13c 8f4b e93d 2751 c0bd 2f96 9cbd
00000020: 2798 9bbd b975 1ebe 1b1a a3bc 728d 9cbc
00000030: 50a3 f23d 9bed 52bd 5c9e 1cbe 48ef 17be
00000040: 59bd 053e ede9 0fbe c3f1 a7bc 89f2 fd3d
00000050: 4b97 5cbd 155c 9a3b 94c4 1dbe 67b3 233e
00000060: 7b9a 35be 7fdd 2abe a7c7 2abe 8b6a 3e3d
00000070: 0787 b0bd e866 b43c e630 29bd 4f50 b83d
00000080: 39b3 f1bd db87 cabd e72c 4c3d 3e9f b5bd
00000090: 7476 09bd 7991 c4bc 167a 233e ef79 a83d
000000a0: 9911 363d 55ff e93a 88ca 49be 619b 2bbc
000000b0: 0a21 b6bc d1b9 6dbc 1cc8 31bd a227 493e
000000c0: 53b0 e8bd 1505 ea3c dcbb d53c e68b 383d
000000d0: 88bf 87be 0b1b f5bd a732 e83d 3326 993e
000000e0: 4899 533c 1cd7 2e3e cb74 46bd 0dfc 9d3d
000000f0: 0437 693e 3474 afbc 2233 f5bc f013 533e
00000100: ae32 c13d 5a58 edbc 2afa 16be 9e3b b2bc
00000110: 57de b2bc a455 803c 9286 1b3e 24ee e33d
00000120: fbd4 2bbc b757 22bd e54b 2abe 234b ef3d
00000130: 0419 223d fcb7 6fbd b3cb a5bd c1ed b0bd
00000140: 20c7 c3bd ce9a 1dbd cd48 283e 4992 ddbc
00000150: a61b b63d 7662 073e 76a0 61bd 0058 01be
00000160: d813 6cbd 6b18 05be 5247 6c3d cc87 213d
00000170: e38a 8d3d 4164 d8bc 667e 43be 4f38 f23d
00000180: f68c f3bb 77ad 49bd 8abc ea3c 632f f43c
00000190: 5904 3ebd 958e 5c3d 421e b03c 746c 2bbd
000001a0: aa3a 8bbb d5ca dd3c 8f2e 9d3c e68c 93bc
000001b0: bba5 28bd 1dec a13d 8303 72bc df5c e0bc
000001c0: 2580 92bd 7b45 043d da25 0dbd 4173 903c
000001d0: f0d4 8a3d 3461 9bba 85d9 79bc a660 84bd
000001e0: 7745 d4bc 6cbe 26bc 20e1 c73c f574 cebc
000001f0: 72b0 c7bc 4cfe 0b3d 88da 113d e127 f2bb
00000200: 778e b93d d133 16be 1acb 6b3d d5a8 cdbd
00000210: bca1 103e 63b9 0e3d 959d 4c3d 4768 c03b
00000220: aab9 a03c 4ebb a33d 5891 393e d829 7cbd
00000230: bf73 86bb 1e9f d1bc fccd d13d 2a3a a2bd
00000240: fa18 f03d c8ce 043e f904 1e3d 1819 39bd
00000250: 0e13 b63c 30ae febd c764 4cbd cc16 ecbd
00000260: 0ff4 97bd c1db ddbb 02ba 263e 5f94 2d3d
00000270: 3c42 ad3d 189b a83c 75bb 503e 27f2 55bd
00000280: eae4 19bb 2bab 46bc 96f6 c63c 8341 81bb
00000290: bf3b ae3c aad3 4f3d 3fc3 9d3b fd7b a5bb
000002a0: 8121 0abd 886f 23bc f927 2ebd 67d7 e2bb
000002b0: 29d8 d8bb 4e92 f33c 7ea5 d2bb fd57 113b
000002c0: 30f6 43bd 6f56 7a3a f88f d13c c134 143c
000002d0: ad11 e0bc 7514 17bd 748a a6bb 3d43 193b
000002e0: cd03 303c 5cb3 863d d80e 103c 8d85 3dbb
000002f0: 4c54 8c3b 58c6 1b3c f3fd 06bb f7cd 49bb
00000300: aca8 03bd 3077 a73d 5804 253e ecbb dc3d
00000310: 90e4 5c3e 6136 033e c8f0 21bd d71a 343e
00000320: 898f ed3c 5f6e 34be 9ca9 d1bd d0d3 093e
00000330: 6481 30bc 4085 223e fcad c83d 4ba6 d33d
00000340: beaf d7bc afd1 053d 9c28 8abd a651 093b
00000350: a0c6 fbbd 33e6 ec3d f40e 6e3d 859f d1bb
00000360: 6259 0cbe fde8 83bc ac3f 6f3d 749d 173e
00000370: 3a74 06bd 0136 123d 9b37 34bd 69fa 033e
00000380: df45 383e c749 05be e211 c5bc 00f8 d0bd
00000390: 1213 27be 12d7 0a3e 81d4 0d3c 2704 193e
000003a0: 22f5 b0bd e87c c2bd c2a8 f2bc ff92 8e3d
000003b0: b066 df3d aaa0 353e 7e48 143e cbaa fe3d
000003c0: 9de2 f73c 487a 5e3c 9b78 4c3d 7912 b53d
000003d0: 68a9 35bd 6db0 2c3e 284f a33d cf73 ecbd
000003e0: 3a8e c6bd 413e 01bc c0a8 0b3e 8945 5dbd
000003f0: d1bb d8bd c27a 2d3d e137 0b3e 569b 2ebe
-0.068771414 0.13186087 -0.089233294 -0.05803341 0.01973526 0.11391365 -0.093904786 -0.07645833
-0.0759738 -0.15474595 -0.019909909 -0.019110415 0.11847556 -0.05149613 -0.15294784 -0.14837372
0.13060512 -0.1405408 -0.020501023 0.123997755 -0.05385522 0.004710684 -0.1540702 0.15986405
-0.17734711 -0.16686057 -0.16677724 0.046488326 -0.086195044 0.022021726 -0.0413064 0.08999693
-0.11801762 -0.098891936 0.04984751 -0.08868264 -0.03356023 -0.023995148 0.15964541 0.08226382
0.044450376 0.0017852584 -0.19706166 -0.010474057 -0.022232551 -0.014509634 -0.04340373 0.19644025
-0.11361756 0.028566876 0.026090555 0.045055293 -0.26513314 -0.11968049 0.11337786 0.29911956
0.012914963 0.17074245 -0.048451226 0.077140905 0.22774893 -0.021417715 -0.029931609 0.20613074
0.094334945 -0.028972793 -0.14743868 -0.021756943 -0.021834536 0.015665837 0.15188053 0.11129406
-0.01048779 -0.039634433 -0.16630514 0.11684253 0.039574638 -0.05852507 -0.08095493 -0.08639098
-0.095594645 -0.03847771 0.16434021 -0.027047293 0.08891992 0.13221154 -0.055084668 -0.12631226
-0.057636112 -0.12997596 0.057685204 0.039436147 0.06911256 -0.026414992 -0.19091186 0.11827146
-0.0074325753 -0.049237695 0.028654356 0.029807752 -0.046390865 0.053846914 0.021498803 -0.041851476
-0.0042489367 0.027074257 0.01918724 -0.018011522 -0.041173678 0.07906363 -0.014771345 -0.027388034
-0.07153348 0.032292824 -0.034459926 0.017633082 0.06778896 -0.001185453 -0.015249615 -0.06463747
-0.02591203 -0.010177236 0.02439934 -0.025202254 -0.024376128 0.034178063 0.0356088 -0.007390008
0.09060376 -0.14668204 0.05756674 -0.10041968 0.14124197 0.034844767 0.04995497 0.005871806
0.019619782 0.0799471 0.1812185 -0.061563343 -0.0041031535 -0.025588568 0.102443665 -0.0792125
0.11723514 0.12969506 0.03857896 -0.045189947 0.022225883 -0.124355674 -0.049900796 -0.11527786
-0.07419597 -0.0067705815 0.16281894 0.042377826 0.08459899 0.020581767 0.20384009 -0.052232888
-0.002348239 -0.012125771 0.024287503 -0.003944577 0.021268724 0.050738968 0.004814535 -0.005050181
-0.033723358 -0.009975322 -0.04251859 -0.0069226506 -0.006617565 0.02973285 -0.0064284196 0.002217769
-0.047842205 0.0009549623 0.025581345 0.009045781 -0.027352178 -0.036884744 -0.005082423 0.0023386024
0.010743094 0.06577179 0.0087926015 -0.0028918714 0.00428251 0.009507738 -0.0020598143 -0.003079293
-0.03214328 0.0817703 0.16114938 0.10778031 0.21571565 0.12813713 -0.039536268 0.17588364
0.028999107 -0.17620228 -0.102374285 0.13459706 -0.010773037 0.15871143 0.0979881 0.10334452
-0.026328918 0.032670673 -0.06746027 0.0020953207 -0.12293744 0.115673445 0.05811973 -0.00639719
-0.13705972 -0.016102308 0.05841033 0.14806157 -0.032825686 0.035696033 -0.043998342 0.12888493
0.17995404 -0.13016425 -0.024056379 -0.10203552 -0.16315868 0.13558605 0.008656622 0.1494299
-0.086405054 -0.0949648 -0.029621486 0.06961631 0.10908258 0.1773707 0.14480779 0.1243492
0.030259425 0.013578959 0.049919706 0.08841414 -0.04435101 0.16864176 0.07974082 -0.11545526
-0.09695096 -0.007888378 0.13638592 -0.054021392 -0.10582698 0.0423534 0.13595535 -0.17051443

gcn.lin_2.weight f4 [32, 32]
00000000: 052b a73d c899 80bd 5404 9a3d c843 82bc
00000010: 523b 053d 17bf acba 99c1 d0bd 545a e7bd
00000020: a8e6 0e3e c0c5 ff3d fab1 593b ca39 833c
00000030: 06de a5bc 43df dabc cfd2 12be b1d0 d33d
00000040: f9ae 4a3c 7fa5 0bbe b957 17be bb65 99bc
00000050: bb0a 243d 6712 063d 1672 0fbd 1257 7d3c
00000060: 18ab 133d 6d66 9fbc 0fb6 b33d a4f8 c1bd
00000070: ebc1 bd3d 9404 15be db37 9cbc de06 473e
00000080: 6d0c 2a3e 83bb 033e 7457 0fbd 6690 41bd
00000090: 567b 043e 2468 1d3c d18d 7cbd 2e9f 263d
000000a0: 64dc 2a3e 1302 7c3d 69b6 d83a 8f57 e63d
000000b0: 684b 593e 8294 93bc 6fe2 ef3d 375a 28bc
000000c0: 11da 7e3e 53b1 b2bd 0faa b43c e6aa 3b3e
000000d0: 3e5e debd 11a4 f03d 0818 19be 4719 3f3e
000000e0: 4b5f 4e3d 9ac5 793c 965c 87bd 56e9 a03d
000000f0: 889f c03d 21bf 28be 0269 d93b 6994 613e
00000100: a91b e63d 3767 21be 9100 2ebe 714f c4bc
00000110: b88a 30be d7c5 e2ba 7e21 0b3e eba7 db3d
00000120: eedf e9bd b8a8 b7b9 ff1b 42b8 3d39 55bc
00000130: 7370 b63d 83b8 1abe 6fb1 e93b ad45 d1bd
00000140: a625 f8bd 77d3 c1bc 7fd5 c8bd b993 cdbd
00000150: f1b9 a5bd 5c6f dabb 3409 9dba aa2a 2abd
00000160: 17d7 42bd af5e 223e 2cad 0fbe b352 ee3d
00000170: 38dd 393e 8cd1 2e3c 4ab5 e0bb 4e6d 6c3d
00000180: de1a e93d ffb3 35be 47e7 88bb 9e53 e5bc
00000190: b433 af3d 0522 7c3c 2c79 1d3d 5a83 0bbe
000001a0: 1a05 d9bc c3fb 83bd 5e40 543a 57e4 9a3c
000001b0: abcd e5bd 7bc3 8ebd 9af9 ccbd e402 753e
000001c0: 0502 f83d 40d2 d8bd 499d c9bd 19c5 a7bd
000001d0: 20b7 053e 78b3 abbd ca22 543e c859 c13d
000001e0: 212a ccbd 35e5 dbbd 9716 e63c 6059 eb3d
000001f0: 7399 2f3e 4d95 2b3e c636 ecbb 5368 123e
00000200: 2361 23be b5e2 1b3e 3d7b 15bd fa43 4cbd
00000210: b592 67be 2089 8fbb b127 4b3d dc65 41be
00000220: 2c17 3f3e f520 b2bd f86f e837 286d dd3d
00000230: 2a1d aa3d eeba 0a3e b1bf c03d c32e a83d
00000240: d2dc 483e 67af 59be b5b7 ebbd 020e 293e
00000250: e359 b8bd 69f1 9d3d 90c4 d5bd 6dc6 cf3d
00000260: c6a7 9fbb 4723 aebd 91b9 16be 5a0e 04be
00000270: 23ac 8bbd 343f 5fbe 6b14 3a3b ccdc de3d
00000280: 3c12 283e f7b3 c43d b9fc b63c 09aa b9bc
00000290: 7af0 9a3d d425 48bb 4287 b6bd f498 d5bd
000002a0: b700 15bd 57ca c43c 276f 353b b2ca 413e
000002b0: b779 653e efa8 1e3e 5608 3a3e 3b70 df3d
000002c0: bb80 583e 94c1 ca3d 228d cabd c09b 0c3e
000002d0: f8f4 b1bd 333e f83d 9dad e5bc 226f 7bbd
000002e0: 5aa8 653d ed90 91bd a945 a53d 2352 f1bd
000002f0: 9249 28be 40fe 203c d32a ab39 d8fc 773d
00000300: 58f4 d1bd 7bed 01be 7e68 0e3e ab8d 63bc
00000310: dddd d83d a395 c03b 5636 25be 6ede a33d
00000320: 585b 913b 3ba3 00be 4a3e 663c ca0f 37bd
00000330: ea24 24be 3ae4 d9bd 7c7b c5bd ea04 5b3e
00000340: d8bf e1bd c34f 063e 1f75 bf3c 28bd ce3d
00000350: 3241 0c3c 8d2f 32bd 1d1a 203e f81f 57bd
00000360: 2e08 01be 311e 013e e983 373e 3e14 1b3e
00000370: b7a4 2f3e b56e 09bd 19ad a3bb 114a 0bbe
00000380: c85d 573c 4307 d1bc faa8 873c dc9f debc
00000390: 2e4f 27bd f731 023a 640a f0bd b54b 5dbd
000003a0: 1418 28bb 1bf0 86bd 0bce c8bc 1012 90bd
000003b0: d5f2 c7bd 63e9 90bd 7eec 19be 74dc 403d
000003c0: 690a 403d 2b0d 64bd 5233 45bd 3905 4c3b
000003d0: 7a93 e93d a3db b6bd f338 edbc e6d7 0a3d
000003e0: 4a70 bebb 3996 263e 842d 4dbd d19e 253e
000003f0: 2eaa ebbd e609 3ebe d64a 9cbc d6a0 0bbe
0.08162502 -0.062793314 0.07520357 -0.015901461 0.032527275 -0.0013179508 -0.10193176 -0.112965256
0.13955176 0.1248889 0.0033217655 0.016018767 -0.02024747 -0.026717788 -0.1433823 0.10342539
0.012370818 -0.1363735 -0.14779557 -0.018725267 0.040049296 0.032732394 -0.03502091 0.015462654
0.03605184 -0.01945802 0.08774959 -0.094712526 0.092655025 -0.14552528 -0.019069603 0.19436213
0.16606303 0.12864499 -0.03499551 -0.04725685 0.12937674 0.009607349 -0.061658684 0.04067915
0.16685635 0.061525416 0.0016533855 0.11247169 0.21220171 -0.01801515 0.11713111 -0.010275415
0.24887873 -0.08725228 0.022053747 0.18326911 -0.10857819 0.11750043 -0.14950573 0.18661986
0.050383847 0.015244866 -0.06609456 0.07857005 0.09405428 -0.1647916 0.0066348324 0.2202927
0.112357445 -0.1576203 -0.16992404 -0.023963662 -0.17240417 -0.0017301393 0.13586995 0.10725387
-0.11419664 -0.00035030185 -4.6279278e-05 -0.013014135 0.08908167 -0.15109448 0.0071317474 -0.10218368
-0.12116556 -0.023660405 -0.09806346 -0.100379415 -0.08092106 -0.006666107 -0.0011980892 -0.041544594
-0.047568407 0.15856431 -0.14030904 0.116368674 0.18150795 0.010670077 -0.006857549 0.05772143
0.11382078 -0.17744444 -0.004177961 -0.027993973 0.085547835 0.01538897 0.038445637 -0.13624325
-0.02649169 -0.06444504 0.00080967497 0.018907709 -0.11220869 -0.06970879 -0.10008545 0.23926884
0.1210976 -0.10586977 -0.09844453 -0.0819189 0.13058138 -0.0838384 0.20716396 0.094409525
-0.09968973 -0.10737077 0.028086944 0.11491656 0.1714838 0.16756172 -0.007208678 0.14297609
-0.15955023 0.152232 -0.036494482 -0.049869515 -0.22614558 -0.0043803602 0.0495984 -0.18886513
0.18661183 -0.08697692 2.7708695e-05 0.108118355 0.08306344 0.1354787 0.09411562 0.08212044
0.19615486 -0.21258317 -0.11509649 0.1650925 -0.090015195 0.07712061 -0.10437882 0.101452686
-0.004872295 -0.08502822 -0.14719225 -0.128961 -0.06819942 -0.21801454 0.0028393518 0.108819574
0.16413206 0.09604638 0.022337304 -0.022664087 0.075653985 -0.0030540125 -0.08912517 -0.10429564
-0.036377635 0.024022264 0.002768466 0.18924978 0.22409712 0.1549413 0.18167242 0.10910078
0.21142857 0.09900203 -0.098902 0.13731289 -0.08689302 0.121212386 -0.028036887 -0.06138528
0.056068756 -0.071077205 0.08069927 -0.117832445 -0.16434315 0.009826243 0.00032647568 0.060543865
-0.10251683 -0.12688248 0.13907048 -0.013888757 0.10589192 0.005877213 -0.16134009 0.080014095
0.004435938 -0.12562267 0.014052937 -0.044692792 -0.16029707 -0.10639234 -0.096426934 0.21388593
-0.110229194 0.13116364 0.023371277 0.100946724 0.008560466 -0.04350238 0.15634961 -0.052520722
-0.12600777 0.12609173 0.17921413 0.1514444 0.17152677 -0.033552844 -0.004995 -0.13602473
0.013144918 -0.025516158 0.016560066 -0.027175836 -0.040846996 0.0004966552 -0.11720732 -0.054027278
-0.0025649117 -0.06588765 -0.024512311 -0.07034695 -0.097631134 -0.07075765 -0.15031621 0.04708524
0.046884928 -0.05567662 -0.048144646 0.0031131043 0.11405082 -0.08928611 -0.02895782 0.033897303
-0.0058117257 0.16268243 -0.050092235 0.16173865 -0.115070686 -0.18558463 -0.019078653 -0.13635573

gcn.lin_2.bias f4 [32]
00000000: da86 003e c7cb 04be ed60 f43d 0b1d 353e
00000010: 7687 29be ced4 31be d8ca 893d 5704 fe3c
00000020: beb3 8bbd 2a48 323e 6fbb fd3d f880 9e3d
00000030: 6ffb 14be de87 03bd 85d8 21be 91f6 40bd
00000040: 906f c4ba 173a d83b 3228 9a3d 085d 1a3e
00000050: 65be 513e ec1f 34be d816 d7bd c6e6 30be
00000060: 447c 30be 4a9b fc3c efb3 25be 17a9 3d3e
00000070: 4d45 19be 515a 143e 77f9 43be b686 1a3e
0.12551442 -0.1296836 0.119325496 0.1768686 -0.1655558 -0.17366335 0.067281425 0.031007929
-0.068213925 0.17410341 0.12389266 0.077394426 -0.1454904 -0.032111995 -0.15805252 -0.047110144
-0.0014986861 0.0065987217 0.07527198 0.15074551 0.20482786 -0.17590302 -0.10502404 -0.17275533
-0.17234904 0.030835766 -0.1618192 0.18521534 -0.14967842 0.14487578 -0.19138132 0.1509045

nf.base_dist_mean f4 [25, 1]
00000000: 2725 143f da60 e5be 9414 0dc0 9073 40bf
00000010: cef4 54bf 7b56 d73f ca89 253f 747b 81bf
00000020: 88f5 82bf 98e1 163e 7a86 f43e 9c04 c8bf
00000030: 691f 7fbf 7f6c 253f 1177 23bf 4ea9 723f
00000040: c3ac 8cbf 9d2e 553d e041 4cbf 515c 7fbd
00000050: 584d f3be 5dd8 f43f 21a3 51be 162a d43d
00000060: fb1f 70bf
0.5786919 -0.44800454 -2.204381 -0.75176334 -0.8318604 1.6823267 0.64663374 -1.01158
-1.023118 0.14734495 0.47758847 -1.5626407 -0.99657303 0.64618677 -0.63853556 0.9478959
-1.0990223 0.052046407 -0.7978802 -0.0623439 -0.47519946 1.9128529 -0.20472385 0.1035959
-0.937988

nf.base_dist_var f4 [25, 1]
00000000: 0000 803f 0000 803f 0000 803f 0000 803f
00000010: 0000 803f 0000 803f 0000 803f 0000 803f
00000020: 0000 803f 0000 803f 0000 803f 0000 803f
00000030: 0000 803f 0000 803f 0000 803f 0000 803f
00000040: 0000 803f 0000 803f 0000 803f 0000 803f
00000050: 0000 803f 0000 803f 0000 803f 0000 803f
00000060: 0000 803f
1.0 1.0 1.0 1.0 1.0 1.0 1.0 1.0
1.0 1.0 1.0 1.0 1.0 1.0 1.0 1.0
1.0 1.0 1.0 1.0 1.0 1.0 1.0 1.0
1.0

nf.net.0.net_input.weight f4 [32, 1]
00000000: d99d 2fbf 639f 36be 36ee 68bf 9344 133d
00000010: 7b84 d03e c909 67bf a012 42bf 82c3 65bf
00000020: 0cf8 f1be 2799 e93e d1ce 46bf c110 95be
00000030: 5411 64bf 09a2 afbe cd3e 723e 5b2c 84be
00000040: 1bf0 aa3d f708 6cbf ad42 e93e a20c 2f3f
00000050: c7f5 f13e dc2f 753f 7937 4b3e 8c67 30be
00000060: 4bd8 da3e c65b 5ebf 9364 54be e879 6a3f
00000070: da92 5abc 517b 3dbf 3027 9fbe 048f 493f
-0.6860023 -0.17834239 -0.9098848 0.03595407 0.40726075 -0.90249306 -0.7580967 -0.89751446
-0.47259557 0.45624658 -0.77659327 -0.29114345 -0.8908894 -0.3430331 0.23656769 -0.2581509
0.08346578 -0.9220118 0.45558682 0.6837865 0.47257826 0.9577615 0.1984538 -0.17227
0.42743143 -0.86858785 -0.20741491 0.91592264 -0.013340676 -0.7401629 -0.31084585 0.7873385

nf.net.0.net_input.bias f4 [32]
00000000: d715 9cbe 802a 3abf a1a4 6f3f 01bf b3bd
00000010: 4199 2cbf e5f5 653f 929c bebd 2791 e9bd
00000020: 84b8 51bf 0967 7fbf 4e82 58be 7f56 fabe
00000030: 0aa0 c8be ec2c fcbe dba5 cf3d ed43 9b3e
00000040: 10a8 143e a4b9 7ebe 9dd7 77bf 0ce6 5abf
00000050: 1ee2 efbe 3f10 473f c527 1bbe eb00 143f
00000060: 072a 76be 889c 463f 10ef e2bd a4ed 333e
00000070: a06a 893e 2582 b5be ffdb 49bf 79a4 5d3f
-0.30485412 -0.727211 0.9361058 -0.087766655 -0.67421347 0.8982833 -0.09307207 -0.11404639
-0.81922174 -0.99766594 -0.21143457 -0.48894116 -0.391846 -0.49253023 0.10139056 0.3032526
0.14517236 -0.24875504 -0.96813375 -0.85507274 -0.468522 0.77759165 -0.1515189 0.578139
-0.2403947 0.775826 -0.11080754 0.17571121 0.2683916 -0.35450855 -0.7885131 0.8657909

nf.net.0.net_input.cond_weight f4 [32, 32]
00000000: 22f4 a93d 2e34 2bbb 5f93 b23d be86 123e
00000010: b925 22bc 454c 913d a593 5d3e c3a5 3d3d
00000020: 085f df3d b353 f83d 915b a63d 92db 163e
00000030: 6480 ab3d 0550 a83d ecf0 8e3d 6eb9 8cbc
00000040: a7f1 0f3e b89b 533e c779 8c3d 5acd 643e
00000050: 36b0 1c3e 1c34 6d3d 11b5 513d 9523 68bd
00000060: c012 c93c 7f47 763d 2241 ecbc c580 303e
00000070: fb30 76bb eb87 f73d b91d e1bc 7087 2a3e
00000080: 772d f83d 458d ed3d 7ce7 bd3d 890a 013e
00000090: 4f3f 283e 7ff9 9c3d 5dc5 0c3e 9cb6 a53d
000000a0: c55d 4c3d 5a53 083e 416d 1a3e e9aa f63d
000000b0: b827 cf3d d6c3 103e 60ae 553d d687 193e
000000c0: f9b2 c23b 39d8 223e 8cc6 fb3d e9f1 bf3d
000000d0: e3a3 a83d 8305 a03d b8d3 7e3d 6206 863d
000000e0: 5bc4 213e aeea 063e ba8b e13d 897c 0d3e
000000f0: eea0 183e 6bad ae3d c3f6 313e 38b9 2d3e
00000100: fa1a f03d f6f4 7b3d b5a0 253e 4622 aa3d
00000110: 9f2c aa3c f3b9 003d 6433 3f3e 7342 293d
00000120: 18e2 de3d c707 ca3d c30c 1c3e b3b9 a33d
00000130: eaee f5bc b1b5 413d 3cdb c83d e0ab d93d
00000140: df95 2f3e a5dc e43d 85f8 083e 38ae 153e
00000150: c2bc 283e ad68 c23d 3f9d 883d 0137 823d
00000160: c826 9a3c 4884 233e 362f e2bc d951 433e
00000170: abc9 ec3c 201f dc3d 773c 353c 567c 983d
00000180: 3406 003e bf05 6b3e b6cd 69bc c986 c43c
00000190: 6c09 5f3e e54a f43d 80da c03d 287b 4e3d
000001a0: 3480 373e a6db 20bd ecf1 583d c39b 573c
000001b0: 2177 2e3e e5a5 393e 4416 6b3e 1b30 0d3e
000001c0: 2f47 3d3c ee64 a83d 63d5 623d d090 123c
000001d0: 6dcb ae3d b4c2 153e 94cc 4f3e 5a10 493d
000001e0: f97e 163e 1ff5 6f3c 2e4a e43d bb23 583c
000001f0: d74d 833e a881 fb3d 165c 443e f8e2 f43d
00000200: 1330 b93d d660 9e3d 495e b63d 66ce 0c3e
00000210: eada 553e f8d0 303e 7eea 033e f9df 843d
00000220: 3fa9 c43d 2cfa e13d 4b9e 063e 0628 7e3d
00000230: bf0c 043e 21cb 353e 6898 fa3d 1cf2 a43d
00000240: 8e9b babc d7a6 3a3d fd01 503d ec07 013e
00000250: 41d7 2a3d 2163 4c3d 635b 1c3e 0f05 0f3e
00000260: 238e 003e 6675 063e 6566 2f3d 5e85 313c
00000270: b183 e03d bb1d d03c bd35 483e 4483 f73d
00000280: 7d02 e83d e885 933d a500 7b3d 4e14 f93d
00000290: 3211 0d3e b98f 123c dec7 de3c a56a 073e
000002a0: f882 473d 9be7 003e 1d4c c53d 0c1a 023d
000002b0: 1415 7d3d 2642 df3d 1274 1e3d af26 f33d
000002c0: ebf2 103e 73f5 e03d 2082 243e d974 c43d
000002d0: 959d a83d 7998 223e c79a 453d 2d2c 5e3d
000002e0: f7e1 283e 68a2 003e 3ace 183c 04f2 9b3c
000002f0: c7de 023e 2161 f63d 98bc 173d 2dbf 1d3e
00000300: 7736 b23d 14d4 cf3d 29f9 db3d 82a3 a53c
00000310: ebf6 263e b460 0b3e 5a28 6e3d a108 853d
00000320: f48b 283d cc53 eb3d 395b cc3c 1d3a 6ebc
00000330: 539a 093e 197c 8c3c 0ad1 3d3e a0c7 303e
00000340: b040 4b3e 5aec e23d 2591 713d df5e 0f3d
00000350: 5332 ac3c 1e14 a83d c16b 393e daaf f63d
00000360: c3c1 293d 6684 7ebc 3bc5 903d 019e 793d
00000370: 6f55 3c3e 6caa d13d 5058 d03d 9c44 263e
00000380: fc37 593e 8a65 833d 0dcc 6e3e dad8 fa3d
00000390: 356d ae3d 8d40 923c 7377 d73d 95bf 403c
000003a0: 6d4f 5a3d 91e3 fa3d fbb5 443e 6d95 073e
000003b0: 51ea b33d f2ce c83d 16e6 cf3d e05b fb3c
000003c0: 7df5 103e 5425 0b3e 2741 383e c82d 883d
000003d0: 063e 3b3e 4760 aabc 52c0 033d 6cbd a13d
000003e0: 8eb6 a13d 0652 863d 5fe0 e03d 6742 f13d
000003f0: 9411 c23d 95db 3a3e 56a1 a03d d722 633e
0.08298518 -0.002612363 0.08719515 0.14309213 -0.009896689 0.070946254 0.21638353 0.04630066
0.10906798 0.12125339 0.08122934 0.14732197 0.08374098 0.082183875 0.06979546 -0.017178264
0.14057027 0.2066487 0.06859165 0.2234396 0.15301594 0.057911023 0.05119807 -0.05667456
0.024545074 0.060126778 -0.028839651 0.17236622 -0.0037565816 0.12086471 -0.027479993 0.16653228
0.12118047 0.11599211 0.09272668 0.12601675 0.164304 0.07664775 0.13747163 0.080914706
0.049894113 0.13313046 0.1508074 0.12044317 0.101149976 0.14137205 0.05216825 0.14993224
0.0059417454 0.15902795 0.12293729 0.093723126 0.08234384 0.07813551 0.06221363 0.06544186
0.1579756 0.1317546 0.11012979 0.13817038 0.1490514 0.085291706 0.17379288 0.16965187
0.11723895 0.06151291 0.16174586 0.083073184 0.02077323 0.031427335 0.18671948 0.041323137
0.10882968 0.09864765 0.15239243 0.07994404 -0.03002115 0.047292415 0.09807441 0.10628486
0.17147015 0.11174897 0.13376053 0.1461724 0.16478255 0.094926216 0.06670617 0.063581474
0.01881732 0.1596843 -0.027610403 0.19074191 0.028904757 0.10748124 0.011061779 0.0744559
0.12502366 0.2295141 -0.014270237 0.023990052 0.21780938 0.119283475 0.094166756 0.05041042
0.1792 -0.039271973 0.05296509 0.013159695 0.17037632 0.1812969 0.22957712 0.13787882
0.011552616 0.08222376 0.055379283 0.008945659 0.08534894 0.14625055 0.20292884 0.04908786
0.14696874 0.014645844 0.11146961 0.013192113 0.25645325 0.12280589 0.19175753 0.11957353
0.090423726 0.07733314 0.08904702 0.1375061 0.2088429 0.17267215 0.1288242 0.06488032
0.09602594 0.110340446 0.13146321 0.062049888 0.12895487 0.17753269 0.122361004 0.08053991
-0.022779252 0.045569267 0.050783146 0.12600678 0.04170919 0.049899224 0.15269236 0.13966773
0.12554221 0.13130721 0.04282226 0.01083502 0.10962618 0.025404802 0.1955175 0.12085584
0.113285996 0.07203275 0.06127991 0.12162076 0.1377609 0.008945399 0.027194913 0.13224275
0.048708886 0.1258835 0.09633658 0.03176312 0.06178768 0.10901289 0.038684912 0.11872613
0.14155166 0.10984316 0.16065264 0.095925994 0.082331814 0.15878476 0.04824331 0.054241348
0.16492449 0.12561953 0.009326512 0.0190363 0.12780295 0.120302446 0.03704509 0.15404959
0.087017946 0.101478726 0.10740883 0.020219568 0.16305129 0.13611108 0.05814395 0.064957865
0.041149095 0.11490592 0.024945842 -0.0145402225 0.13437776 0.017149018 0.18536773 0.17263651
0.19848895 0.11080237 0.05897631 0.035002586 0.02102009 0.08206962 0.18107511 0.1204526
0.04144455 -0.015534496 0.07068869 0.0609417 0.18391965 0.102375835 0.10173094 0.1623711
0.21212763 0.064158514 0.23320027 0.122483924 0.08516923 0.017853046 0.1052083 0.011764427
0.053298403 0.12250436 0.19210045 0.13240595 0.08784927 0.09805097 0.10151307 0.030683458
0.14156146 0.13588458 0.17993604 0.06649357 0.18285379 -0.020797862 0.032165833 0.078974575
0.07896148 0.065586135 0.109802954 0.11780243 0.09476009 0.18247826 0.078432724 0.22181259

nf.net.0.net_input.mask f4 [32, 1]
00000000: 0000 803f 0000 803f 0000 803f 0000 803f
00000010: 0000 803f 0000 803f 0000 803f 0000 803f
00000020: 0000 803f 0000 803f 0000 803f 0000 803f
00000030: 0000 803f 0000 803f 0000 803f 0000 803f
00000040: 0000 803f 0000 803f 0000 803f 0000 803f
00000050: 0000 803f 0000 803f 0000 803f 0000 803f
00000060: 0000 803f 0000 803f 0000 803f 0000 803f
00000070: 0000 803f 0000 803f 0000 803f 0000 803f
1.0 1.0 1.0 1.0 1.0 1.0 1.0 1.0
1.0 1.0 1.0 1.0 1.0 1.0 1.0 1.0
1.0 1.0 1.0 1.0 1.0 1.0 1.0 1.0
1.0 1.0 1.0 1.0 1.0 1.0 1.0 1.0
